Weights/model_weight.pt_german.pth (torch, 8707 bytes, 15 tensors)

assigner.layers.0.weight f4 [2, 54]
-0.3057486 0.04825317 0.13310502 -0.087321326 -0.26012757 -0.32267553 -0.28357625 0.07375881
0.050098587 0.12163999 -0.0139186885 -0.16262211 0.081653245 0.2187262 0.26016685 -0.29498672
0.23009491 -0.17326424 -0.06320412 0.21582085 -0.19538459 -0.14980398 -0.2768033 0.10990887
0.13712631 -0.17915621 -0.14813063 -0.24313304 0.081758045 -0.055837847 0.1577141 -0.20159589
0.1547189 -0.17304964 -0.0011520956 0.10794338 0.020218957 -0.11604821 0.0011500265 -0.22787538
-0.035258494 0.08427847 -0.16583261 0.17349382 -0.14956129 0.023799278 -0.023189785 -0.004953766
-0.07759108 0.25091147 0.22242537 0.1051167 -0.08936764 -0.081910186 0.10190102 0.11024842
-0.08907178 -0.14640462 -0.05081578 -0.18306333 0.056919288 0.18933807 0.23383965 0.017813519
0.31597105 0.25887886 -0.058321007 -0.34277242 -0.43504393 0.033836138 -0.24663055 -0.11925599
0.11254803 0.001708226 0.30636498 0.20114951 -0.060650162 -0.4109895 -0.22764008 -0.064174965
-0.10978616 0.06451544 0.028906405 -0.07324189 0.22026488 -0.05244758 0.14423156 -0.12203492
-0.19870672 -0.18051122 0.10247423 0.07249125 0.09239568 0.31166485 0.017096246 -0.24555631
0.15398552 0.31857842 0.12689929 0.32813123 -0.3645475 0.26649952 0.3531109 0.19281815
-0.50965774 -0.091710955 0.002098329 -0.079740904
00000000: 158b 9cbe 1ea5 453d af4c 083e 86d5 b2bd
00000010: 712f 85be ba35 a5be e830 91be dc0e 973d
00000020: 2d34 4d3d 631e f93d 360b 64bc 6986 26be
00000030: d139 a73d c3f9 5f3e 9734 853e 8008 97be
00000040: 009e 6b3e 2e6c 31be 2971 81bd 2400 5d3e
00000050: e612 48be 3766 19be 2ab9 8dbe e717 e13d
00000060: d76a 0c3e ba74 37be 8eaf 17be def7 78be
00000070: c370 a73d 3ab6 64bd ce7f 213e 276f 4ebe
00000080: a26e 1e3e ed33 31be ea01 97ba 6b11 dd3d
00000090: 3aa2 a53c afaa edbd 7cbc 963a 2a58 69be
000000a0: 366b 10bd 319a ac3d 06d0 29be 5da8 313e
000000b0: 9826 19be b4f6 c23c 81f8 bdbc 3353 a2bb
000000c0: 12e8 9ebd 7877 803e 7ac3 633e 6d47 d73d
000000d0: 6206 b7bd 87c0 a7bd 7bb1 d03d ecc9 e13d
000000e0: 446b b6bd 18eb 15be 3524 50bd f474 3bbe
000000f0: 3324 693d d7e1 413e a973 6f3e a8ed 913c
00000100: f5c6 a13e c58b 843e 02e2 6ebd de7f afbe
00000110: 14be debe c397 0a3d b88c 7cbe 7c3c f4bd
00000120: 957f e63d 8ee6 df3a dfdb 9c3e 23fa 4d3e
00000130: 4e6c 78bd 376d d2be 7b1a 69be 2a6e 83bd
00000140: 91d7 e0bd ac20 843d 20cd ec3c d8ff 95bd
00000150: 1e8d 613e 46d3 56bd 70b1 133e 72ed f9bd
00000160: c679 4bbe efd7 38be 02de d13d 4b76 943d
00000170: f239 bd3d 8992 9f3e 6d0d 8c3c 1d73 7bbe
00000180: 61ae 1d3e b61c a33e e3f1 013e d100 a83e
00000190: f8a5 babe a072 883e f4ca b43e 1f72 453e
000001a0: ee78 02bf f4d2 bbbd 1e84 093b 334f a3bd

assigner.layers.0.bias f4 [2]
-0.10237991 0.15073234
00000000: 8fac d1bd 9459 1a3e

assigner.layers.1.weight f4 [2, 2]
0.24172717 0.23898244 0.14533299 1.2177521
00000000: 5487 773e d0b7 743e 2cd2 143e 4ddf 9b3f

assigner.layers.1.bias f4 [2]
-0.14341131 0.1434113
00000000: 6ada 12be 69da 123e

disenlayers.0.lin_layers.0.weight f4 [8, 27]
0.24053228 -0.005277563 -0.26093683 -0.068800904 0.27783394 0.17600392 -0.18099628 -0.024976294
-0.22488967 -0.14182389 -0.2105831 -0.05054922 -0.031763535 -0.35482645 -0.33601034 -0.33049965
0.027079564 -0.32327557 -0.031969722 0.012249074 0.038780373 -0.39362097 0.05006944 0.03347668
0.07682336 -0.32880935 -0.38972402 0.096299075 -0.023611272 -0.23086426 -0.027975159 0.2807042
-0.3022995 -0.17332827 -0.22204456 -0.11692515 0.043166973 -0.13139 0.008433634 -0.029815672
-0.16180559 -0.14634237 -0.12626788 0.029168416 -0.29429892 0.01107046 -0.011726593 0.010338695
-0.25329646 0.113645725 0.014029857 0.0720154 -0.1502642 -0.19954361 0.23240621 0.051302
-0.29071304 -0.29377052 0.34071276 -0.11277475 0.14822704 -0.26611516 -0.37911612 -0.11570367
-0.112941146 -0.06373371 -0.06057063 -0.16295172 -0.17556557 -0.03277661 0.013436683 -0.22682515
-0.17066357 0.040671285 0.048470214 -0.32705608 0.10391696 0.014571556 0.099727936 -0.25326636
-0.24792857 0.03571512 -0.011527481 -0.14412901 0.3210877 -0.14471667 0.009852158 0.18551318
-0.050181415 -0.15438649 -0.07305252 -0.10322741 -0.031571735 -0.011836662 -0.123953104 -0.11584987
-0.08846273 0.01006003 -0.09938507 -0.040612333 0.01211791 -6.0885046e-05 -0.11923827 -0.0075007323
0.0113349585 0.027905168 -0.15482934 -0.06181465 0.12338223 0.012737672 0.1633885 -0.22682463
-0.06991073 -0.10552578 -0.11108733 0.17455256 0.017390383 -0.027985124 0.09803724 -0.07469983
0.01980975 0.16283938 0.12919988 0.13285653 0.055680934 -0.045541577 0.04471511 0.015793577
-0.008620873 -0.12915277 0.18219335 -0.017469402 0.044877335 0.14580329 -0.020320531 0.074772015
-0.0016647584 -0.082511835 -0.32545382 -0.3984562 -0.492966 -0.11258217 -0.23800224 -0.15987934
-0.0028989385 -0.079165295 -0.010988784 -0.0010485251 -0.05231463 -0.058978856 -0.017913107 0.0319979
-0.14927436 0.009404501 0.0063935234 0.009676642 -0.10440272 0.07878426 0.009275506 0.039455947
-0.08321877 -0.09240777 0.19667357 -0.014875024 -0.14829597 -0.03523298 0.5216573 -0.050035425
0.03706154 -0.23177733 -0.1223894 0.072495766 -0.048199095 0.022077806 -0.0014617289 -0.04525816
-0.050758976 0.042720016 0.022188457 -0.13173 0.040279664 -0.0038203306 0.008278371 -0.11258255
0.10626283 0.005893917 0.037496608 -0.002333059 -0.066011705 0.2792486 -0.021922296 -0.1687286
0.14954875 -0.018442526 0.29547215 0.18297936 0.29592112 -0.03741263 0.011166404 -0.11628755
0.0069306553 -0.021724124 0.045495745 -0.051364318 0.118898235 0.13226396 -0.19452101 0.08387085
0.024061043 0.009849655 0.04970237 0.24026115 0.010203624 0.10330929 -0.045595016 0.103636675
00000000: 184e 763e 68ef acbb 8399 85be 7de7 8cbd
00000010: 4040 8e3e 5f3a 343e 1757 39be 169b ccbc
00000020: 7a49 66be 483a 11be 19a3 57be b30c 4fbd
00000030: 7b1a 02bd d0ab b5be 8c09 acbe 4037 a9be
00000040: f6d5 dd3c 6084 a5be aff2 02bd 57b0 483c
00000050: 2bd8 1e3d b088 c9be 9d15 4d3d d81e 093d
00000060: 9155 9d3d b359 a8be e889 c7be 7338 c53d
00000070: 6d6c c1bc ae67 6cbe 292c e5bc 76b8 8f3e
00000080: 00c7 9abe f77c 31be a65f 63be 7476 efbd
00000090: dacf 303d 1a8b 06be 3a2d 0a3c ff3f f4bc
000000a0: 5db0 25be c6da 15be 5e4c 01be 9af2 ee3c
000000b0: 59ae 96be e060 353c e520 40bc a163 293c
000000c0: 13b0 81be 17bf e83d 7cdd 653c cf7c 933d
000000d0: dcde 19be 2955 4cbe e5fb 6d3e 0c22 523d
000000e0: 57d8 94be 1769 96be e771 ae3e 73f6 e6bd
000000f0: d4c8 173e 3f40 88be 821b c2be 0cf6 ecbd
00000100: b04d e7bd d286 82bd e918 78bd d1dc 26be
00000110: 76c7 33be c440 06bd 8925 5c3c da44 68be
00000120: 6ec2 2ebe ef96 263d b488 463d e573 a7be
00000130: 6ad2 d43d 89bd 6e3c 293e cc3d 21ac 81be
00000140: fde0 7dbe 054a 123d c2dd 3cbc 8e96 13be
00000150: 9b65 a43e 9b30 14be f26a 213c 2bf7 3d3e
00000160: 078b 4dbd 7e17 1ebe 8f9c 95bd e468 d3bd
00000170: 5d51 01bd 8fee 41bc 20db fdbd b242 edbd
00000180: f32b b5bd d3d2 243c 668a cbbd 1e59 26bd
00000190: 338a 463c d25e 7fb8 3233 f4bd b4c8 f5bb
000001a0: 43b6 393c 6199 e43c 958b 1ebe 5c31 7dbd
000001b0: d3af fc3d abb1 503c 514f 273e b744 68be
000001c0: 5b2d 8fbd e61d d8bd c181 e3bd e8bd 323e
000001d0: 4776 8e3c 0f41 e5bc c0c7 c83d 39fc 98bd
000001e0: 0f48 a23c 5ebf 263e f94c 043e 8b0b 083e
000001f0: b111 643d ce89 3abd 3127 373d 8861 813c
00000200: 903e 0dbc a040 04be e590 3a3e fe1b 8fbc
00000210: 4cd1 373d 754d 153e 3e77 a6bc 1222 993d
00000220: 0634 daba f7fb a8bd e2a1 a6be 7302 ccbe
00000230: 0a66 fcbe 7b91 e6bd dcb6 73be 69b7 23be
00000240: 1efc 3dbb 6a21 a2bd 4d0a 34bc aa6e 89ba
00000250: de47 56bd d093 71bd 82be 92bc 3b10 033d
00000260: 61db 18be 5615 1a3c c380 d13b c78a 1e3c
00000270: 18d1 d5bd a459 a13d 4bf8 173c 8f9c 213d
00000280: 9a6e aabd 4940 bdbd cc64 493e 5fb6 73bc
00000290: e6da 17be 7550 10bd 558b 053f f2f1 4cbd
000002a0: d7cd 173d 0957 6dbe 4ba7 fabd a978 943d
000002b0: 6a6c 45bd 84dc b43c 7c97 bfba 9f60 39bd
000002c0: a5e8 4fbd 2ffb 2e3d 91c4 b53c 3be4 06be
000002d0: 4afc 243d 835e 7abb 01a2 073c ae91 e6bd
000002e0: 54a0 d93d c221 c13b 0b96 193d 3ce6 18bb
000002f0: 2531 87bd acf9 8e3e 6396 b3bc 31c7 2cbe
00000300: 4f23 193e c814 97bc 2048 973e f15e 3b3e
00000310: f982 973e fc3d 19bd 4bf3 363c 2b28 eebd
00000320: 8d1a e33b caf6 b1bc bf59 3a3d 6463 52bd
00000330: eb80 f33d 3470 073e 8430 47be 7bc4 ab3d
00000340: aa1b c53c 7360 213c b694 4b3d 0507 763e
00000350: 1a2d 273c d293 d33d d7c1 3abd 773f d43d

disenlayers.0.lin_layers.0.bias f4 [8]
-0.139751 -0.12002516 -0.11831705 -0.06142008 0.08630973 -0.03803584 0.027796928 0.15271021
00000000: e31a 0fbe c0cf f5bd 3650 f2bd 9f93 7bbd
00000010: 28c3 b03d 78cb 1bbd 62b6 e33c 1160 1c3e

disenlayers.0.lin_layers.1.weight f4 [8, 27]
-0.024422832 0.019784337 -0.29291302 -0.79194206 0.031871304 0.026693782 -0.42569095 -0.601645
-0.4821419 -0.3868863 -0.27891108 -0.07792409 -0.08632911 -0.30903038 -0.3501972 -0.43221432
-0.18951038 -0.43737838 -0.06913371 -0.03552436 -0.038106162 -0.2490005 -0.10988951 -0.02549743
-0.0025536334 -0.3094736 -0.33151236 -0.18576345 0.068002 -0.8350677 -1.0123227 -0.3281758
0.12640226 -0.38527924 -1.0056841 -0.84724855 -0.5570564 -0.5684855 -0.4209899 -0.22749662
-0.55053574 -0.4281635 -0.38688487 -0.38200784 -0.8749064 -0.27119657 -0.077522375 -0.1387862
-0.48903704 -0.2960779 -0.078825235 0.31485966 -0.5094656 -0.6167657 0.39347914 0.050221164
-0.40401375 -0.10317317 -0.16667834 -0.08828925 0.028601905 -0.433579 -0.48168838 -0.04967366
-0.2837482 0.031148016 0.010135488 -0.0972756 -0.122117676 0.0026066857 -0.03352838 -0.5366399
0.09643038 -0.0138153145 -0.026532967 -0.00427305 0.33235815 -0.0016017649 0.1543004 -0.24065927
-0.04017378 0.16165157 -0.013897968 0.026970292 -0.16468269 0.26902246 0.033947185 -0.3792398
0.10298782 -0.11899314 -0.23814248 0.1261355 0.0048457095 0.042969633 0.10254695 0.09105945
0.11638265 0.12667984 0.14623734 0.10534286 0.032862887 0.01518005 -0.10189467 -0.056288645
0.028758263 -0.053997427 -0.09051884 -0.041672256 -0.10949441 0.03895605 -0.49408236 -0.7485249
-0.4762516 -0.1826328 -0.7329894 -0.6653038 -0.8592809 -0.7556796 -0.32118744 -0.06364246
-0.15227275 -0.28522527 -0.58271915 -0.18958248 -0.307268 -0.745074 -0.044981927 -0.04686678
-0.08929081 -0.34504983 -0.22345605 -0.048753902 0.10102218 -0.34329048 -0.46184796 0.13882063
0.027806366 -0.1926278 -0.251222 -0.17301323 0.6434025 0.14958075 -0.04427946 0.069260076
0.13078116 -0.107921995 0.13241497 -0.03884227 -0.16666093 -0.08715823 -0.07204315 -0.12076476
-0.2792206 -0.024161639 -0.035124872 -0.0148675265 0.16726774 0.10037948 -0.025498744 0.06492276
-0.18721807 -0.04941171 -0.13226992 -0.0015723024 -0.050600592 -0.222151 -0.04462962 -0.37129712
-0.07734311 0.19913428 -0.017013388 0.13874897 0.04021753 -0.12655273 0.02534239 0.0046240534
-0.010167998 -0.29000166 -0.071731776 -0.10665937 -0.012287628 0.0151138995 -0.0058655753 -0.0618451
-0.10849845 0.020325944 0.017852984 -0.105711006 -0.00075533276 -0.0011753219 -0.066216536 0.61257714
0.58716154 0.3152031 0.123990774 0.2467084 0.7066948 0.5818183 0.037497256 0.4136823
0.26195073 0.06298671 0.59303725 0.5980654 0.27948153 0.34726492 0.57676053 0.15838724
0.039800715 0.10494768 0.21880512 0.15420027 0.024933929 -0.40395156 0.5479494 0.27644306
00000000: 6412 c8bc c312 a23c b2f8 95be b7bc 4abf
00000010: 7c8b 023d ebac da3c 2af4 d9be 6805 1abf
00000020: 4edb f6be f615 c6be 6fcd 8ebe aa96 9fbd
00000030: 51cd b0bd 3b39 9ebe 0c4d b3be 324b ddbe
00000040: 020f 42be 0ff0 dfbe f995 8dbd fe81 11bd
00000050: 3515 1cbd fdf9 7ebe c00d e1bd fcdf d0bc
00000060: dc5a 27bb 5373 9ebe fdbb a9be c638 3ebe
00000070: a244 8b3d ffc6 55bf ca93 81bf a906 a8be
00000080: 986f 013e 5243 c5be 42ba 80bf 48e5 58bf
00000090: 409b 0ebf 4488 11bf fd8b d7be e0f4 68be
000000a0: e9ef 0cbf 3f38 dbbe c615 c6be 8896 c3be
000000b0: def9 5fbf 47da 8abe 0dc4 9ebd f81d 0ebe
000000c0: 1063 fabe 8697 97be 206f a1bd 4935 a13e
000000d0: 566c 02bf 5be4 1dbf 1976 c93e b5b4 4d3d
000000e0: e4da cebe 744c d3bd baad 2abe ffd0 b4bd
000000f0: 8b4e ea3c 11fe ddbe dc9f f6be 9c76 4bbd
00000100: 7247 91be 202a ff3c 510f 263c 6e38 c7bd
00000110: d518 fabd eed4 2a3b 0e55 09bd 3c61 09bf
00000120: 4b7d c53d a159 62bc aa5b d9bc f104 8cbb
00000130: d92a aa3e 50f2 d1ba ed00 1e3e 626f 76be
00000140: 438d 24bd fd87 253e 4eb4 63bc cdf0 dc3c
00000150: 94a2 28be 50bd 893e 340c 0b3d b82b c2be
00000160: 47eb d23d adb2 f3bd 9fdb 73be aa29 013e
00000170: c2c8 9e3b ed00 303d 2304 d23d 607d ba3d
00000180: 075a ee3d 5cb8 013e 3ebf 153e ffbd d73d
00000190: 3c9b 063d bfb5 783c 27ae d0bd ec8e 66bd
000001a0: 7396 eb3c 682c 5dbd f161 b9bd 87b0 2abd
000001b0: 9b3e e0bd 6190 1f3d 5df8 fcbe 549f 3fbf
000001c0: 40d7 f3be 1804 3bbe 31a5 3bbf 5a51 2abf
000001d0: d5f9 5bbf 3874 41bf ae72 a4be fa56 82bd
000001e0: 63ed 1bbe 0c09 92be 152d 15bf e921 42be
000001f0: 3b52 9dbe 2bbd 3ebf f83e 38bd 61f7 3fbd
00000200: 1ade b6bd 5faa b0be aad1 64be 2cb2 47bd
00000210: b7e4 ce3d c5c3 afbe 5677 ecbe ff26 0e3e
00000220: 2dca e33c 3940 45be 2ca0 80be 612a 31be
00000230: 07b6 243f b22b 193e 615e 35bd 3ad8 8d3d
00000240: 7feb 053e 3506 ddbd ca97 073e 1219 1fbd
00000250: 2aa9 2abe 0480 b2bd 5c8b 93bd 8453 f7bd
00000260: 01f6 8ebe a1ee c5bc 19df 0fbd ed96 73bc
00000270: 3c48 2b3e c293 cd3d bee2 d0bc 39f6 843d
00000280: 18b6 3fbe ef63 4abd c471 07be b715 ceba
00000290: 9142 4fbd 8d7b 63be 8ccd 36bd a81a bebe
000002a0: 1166 9ebd dbe9 4b3e a95f 8bbc 3614 0e3e
000002b0: 23bb 243d 0a97 01be d89a cf3c 5f85 973b
000002c0: ad97 26bc 197b 94be 1ce8 92bd 3a70 dabd
000002d0: 0c52 49bc 4aa0 773c 0334 c0bb 4a51 7dbd
000002e0: 6f34 debd 9882 a63c 6c40 923c 037f d8bd
000002f0: 8601 46ba 420d 9aba 899c 87bd dbd1 1c3f
00000300: 3850 163f 4d62 a13e e0ee fd3d 20a1 7c3e
00000310: f3e9 343f 0bf2 143f b996 193d 2bce d33e
00000320: 681e 863e 2dff 803d 4ad1 173f d01a 193f
00000330: 3418 8f3e b5cc b13e 94a6 133f 4430 223e
00000340: 1306 233d cfee d63d 730e 603e ade6 1d3e
00000350: 3d42 cc3c bdd2 cebe 6946 0c3f f289 8d3e

disenlayers.0.lin_layers.1.bias f4 [8]
-0.30092216 -0.5092104 0.013401107 -0.029146658 -0.46243846 0.039735943 -0.072301015 0.3145584
00000000: 7812 9abe 9d5b 02bf 5190 5b3c f9c4 eebc
00000010: bcc4 ecbe 28c2 223d 8e12 94bd cc0d a13e

disenlayers.0.conv_layers.0.weight f4 [8, 8]
-0.82821363 -0.12688814 -0.75815713 -0.21344262 0.9448572 -1.4089894 0.24923597 0.5852194
-1.2858151 2.5660574 -1.4708083 0.345164 -0.23980077 0.5936122 -0.3889292 1.6250681
-0.65537333 0.49575302 -0.4027448 -0.32417333 -1.7485733 -1.2988663 -0.49978918 0.7711072
-0.060356125 -1.4580808 -1.1803308 -1.0344366 1.4583791 -0.81332636 0.08266402 1.3190813
1.1950619 3.0805907 -0.1680621 -0.12720273 -2.4573257 0.45657352 0.6681971 -0.85056275
2.1489332 0.92977464 0.45059264 0.6622315 -1.8096349 0.39676985 -0.014142781 1.1796756
0.6385094 0.1445411 2.3101125 0.44633323 -0.04870226 0.31770512 -0.1270035 -0.18142752
-0.5913901 0.741616 -0.26684827 -0.035493176 0.8415798 0.6303946 0.18422247 1.908218
00000000: cf05 54bf f7ee 01be 9616 42bf b490 5abe
00000010: 29e2 713f c459 b4bf b737 7f3e f0d0 153f
00000020: 9795 a4bf 493a 2440 7243 bcbf 56b9 b03e
00000030: 558e 75be f8f6 173f ba21 c7be 3b02 d03f
00000040: 8cc6 27bf 57d3 fd3e 9134 cebe 0cfa a5be
00000050: 40d1 dfbf 4041 a6bf 5ee4 ffbe 4867 453f
00000060: fc37 77bd 64a2 babf 1415 97bf 6b68 84bf
00000070: 2bac ba3f 2836 50bf c14b a93d a8d7 a83f
00000080: caf7 983f 6628 4540 7918 2cbe 6f41 02be
00000090: d344 1dc0 01c4 e93e f70e 2b3f 7bbe 59bf
000000a0: 1f88 0940 b605 6e3f 14b4 e63e 0188 293f
000000b0: 1ea2 e7bf 6b25 cb3e 1fb7 67bc 9cff 963f
000000c0: 5a75 233f 9502 143e e2d8 1340 ca85 e43e
000000d0: 057c 47bd 3faa a23e 350d 02be 23c8 39be
000000e0: 5765 17bf 8cda 3d3f 56a0 88be 4b61 11bd
000000f0: c671 573f 8a61 213f d1a4 3c3e 7d40 f43f

disenlayers.0.conv_layers.1.weight f4 [8, 8]
1.1316671 -0.49693748 -0.37463418 1.4748986 -0.13727874 -1.2614263 1.4466542 0.35632715
-0.28881422 0.3294923 1.0611913 -0.46926668 1.0766228 1.1960733 -1.0253143 -1.7542822
0.09154746 -0.5832812 -1.6047138 0.9551653 0.25592923 -0.33591193 -0.6037046 0.3787037
-0.074937224 1.0051829 -0.21881156 -2.0874112 -0.5291081 -0.89533436 2.560188 1.7812324
0.6113085 -0.5437977 -1.3101956 0.63847804 -0.73241675 1.6684716 -0.37445694 -2.2536297
-0.6435153 -0.7442948 1.3236946 0.1668771 2.203312 0.20576918 0.65863544 -2.0201435
-0.516249 -1.5554453 0.46673974 0.5811823 -0.06715493 -0.65487754 0.6150108 -0.31048438
0.8418645 2.748951 -0.09952558 -0.3109662 1.9385344 0.06391677 -0.024239365 -1.8101475
00000000: 78da 903f 976e febe 0dd0 bfbe 7ac9 bc3f
00000010: cc92 0cbe 6b76 a1bf f72b b93f 8370 b63e
00000020: 75df 93be 37b3 a83e 1ed5 873f b943 f0be
00000030: c7ce 893f ee18 993f 803d 83bf 528c e0bf
00000040: 3c7d bb3d eb51 15bf 4367 cdbf b785 743f
00000050: 2809 833e a6fc abbe 628c 1abf 74e5 c13e
00000060: b078 99bd d5a9 803f 2310 60be 2598 05c0
00000070: a173 07bf a234 65bf 1fda 2340 6cff e33f
00000080: b77e 1c3f 5336 0bbf 7db4 a7bf 4c73 233f
00000090: aa7f 3bbf 7a90 d53f d2b8 bfbe 783b 10c0
000000a0: 6bbd 24bf 1b8a 3ebf d36e a93f d5e1 2a3e
000000b0: 1003 0d40 28b5 523e 559c 283f 084a 01c0
000000c0: e528 04bf d518 c7bf 83f8 ee3e 5dc8 143f
000000d0: 8688 89bd 0ea6 27bf 5971 1d3f cff7 9ebe
000000e0: 6f84 573f d0ee 2f40 11d4 cbbd f636 9fbe
000000f0: e521 f83f cce6 823d a291 c6bc eab2 e7bf

disenlayers.0.bias_list.0 f4 [1, 8]
-0.33199927 0.31034607 -0.27136803 -0.27831763 -1.6476963 -1.1727991 0.24355955 -1.4278157
00000000: cffb a9be aee5 9e3e c0f0 8abe a67f 8ebe
00000010: b6e7 d2bf 481e 96bf ad67 793e aac2 b6bf

disenlayers.0.bias_list.1 f4 [1, 8]
0.04048656 -1.5011611 0.78406423 -1.202312 1.1616323 0.21617466 -0.12610617 1.9332521
00000000: 3cd5 253d 0c26 c0bf 6fb8 483f 5ce5 99bf
00000010: 5eb0 943f e45c 5d3e fa21 01be ce74 f73f

weight f4 [1, 16]
-0.13783483 0.15742548 0.03346574 0.03570744 -0.037455935 -0.18672052 0.03943717 -0.34613043
0.021077335 0.007825347 0.31556496 0.06476638 0.028153386 -0.13888969 0.062537774 -0.44891232
00000000: 9324 0dbe 2534 213e 5f13 093d f741 123d
00000010: 656b 19bd aa33 3fbe df88 213d 0238 b1be
00000020: 60aa ac3c e235 003c bb91 a13e 3ca4 843d
00000030: eea1 e63c 1939 0ebe ce13 803d d6d7 e5be

weight f4 [2, 8]
0.81935096 -0.534974 0.6329852 0.83978033 -0.9159334 1.3870891 0.22578648 0.042633455
-0.7996971 0.6377739 -0.22403064 -1.4962273 1.4147453 -1.1468753 -0.7416036 0.59427804
00000000: fcc0 513f 0ef4 08bf 510b 223f d8fb 563f
00000010: 9c7a 6abf 238c b13f 9234 673e 6ba0 2e3d
00000020: f3b8 4cbf 2645 233f 4a68 65be 6084 bfbf
00000030: 6016 b53f cfcc 92bf bcd9 3dbf 9b22 183f

bias f4 [2]
0.09784428 -0.097844444
00000000: 9562 c83d ab62 c8bd
