Weights/model_weight.pt_credit.pth (torch, 7619 bytes, 15 tensors)

assigner.layers.0.weight f4 [2, 26]
00000000: 91a8 d53d 5693 c4bd c917 99be 6ed5 db3e
00000010: 6fdd 783e 4d29 c93e bc33 8abc c108 87bd
00000020: 99a0 e53e d576 d13d f8c4 0d3e 67b4 653e
00000030: 9455 343e c91e 4cbe 937a eebe e94d 16be
00000040: 06dc 713e 82b5 843e bb38 03bd 3854 823e
00000050: 3e35 2bbe 9a0a 75be d244 85be 4ecb 573e
00000060: a357 463e fe9c f2be 4a59 dcbe f05b f63e
00000070: 1e60 e13e 33e4 b83e f0a1 d7be 8ddf 943e
00000080: 2a8e 8fbe de89 193d cd34 7cbc 7159 563e
00000090: 8c84 dfbc 9707 9ebe b98a 953e dba2 89bd
000000a0: c2fe 45bd 7286 b23c f918 0f3e a8d4 633e
000000b0: 844f 19be 0a60 0c3e 28c0 08be fec1 b93e
000000c0: fcaf 9b3e 631d adbe 3315 b43e a19a 2dbf
0.10432542 -0.095984146 -0.2990096 0.4293627 0.2430322 0.39289322 -0.016870372 -0.065934666
0.4484909 0.102277435 0.13844669 0.224321 0.1761077 -0.19933619 -0.46577892 -0.14678158
0.23619089 0.2591973 -0.032036524 0.2545488 -0.16719529 -0.23929825 -0.26029068 0.21073648
0.19369368 -0.473854 -0.43036872 0.48117018 0.44018644 0.36111602 -0.42115736 0.29076806
-0.2803815 0.037484996 -0.015393448 0.20932557 -0.027284883 -0.30865166 0.292074 -0.06720515
-0.04833866 0.021792624 0.1397437 0.2224909 -0.14971739 0.13708511 -0.13354552 0.36280817
0.30407703 -0.33811483 0.35172424 -0.6781407

assigner.layers.0.bias f4 [2]
00000000: 8224 04bc 4a54 7e3a
-0.008065345 0.0009701891

assigner.layers.1.weight f4 [2, 2]
00000000: 6369 41be ee94 ee3d 0857 71bf 7d7c fbbe
-0.18887858 0.116495 -0.94273424 -0.49118415

assigner.layers.1.bias f4 [2]
00000000: 7ed8 f3bb 76d8 f33b
-0.0074415794 0.0074415756

disenlayers.0.lin_layers.0.weight f4 [8, 13]
00000000: e2f6 c83d 8282 bf3a d54c b3be a9f7 0a3f
00000010: 5020 e73e 804a 6abe 6503 1fbe 91ed 88bd
00000020: bdfb 5d3e d84b 96be efdd 50be 60e0 a5be
00000030: 1767 a73d 77f2 303d e3e5 2fbf 631b ccbe
00000040: 4aae b3be 0a53 b03e 3cba 7abe 195e ff3e
00000050: 2d94 8f3e 7775 aa3e 910c 06bf 04f5 f7be
00000060: 61ce ab3d fb83 df3d 0b12 9a3e 79e1 cfbd
00000070: 744b c13d 52b8 92bd fb2e f33d 01f4 b7be
00000080: 81d5 98be fea1 aabe 99bc 713e b927 1e3f
00000090: 6c5d 813d 7efa 9c3e d8f9 0f3d 6e21 a9bc
000000a0: e0de 10bf e2e8 03be 9185 67be 1bc7 ef3e
000000b0: fe31 c53d cf53 473e ec04 763e dd8c c8bd
000000c0: bdfb 073e f1bc 733e 81af e4be 6785 f9be
000000d0: b463 d83e dee5 5ebd 1469 8e3d cdbe 95be
000000e0: 43ae 88bd 9bcb 64be bbb9 92be a1ea c9be
000000f0: 6183 69be 13eb c4be d3d6 9b3e 6a81 75be
00000100: 0879 dfbe 3eaf 263d 9904 f4bd a1ab debd
00000110: c422 9fbe 3a74 bfbd 0777 56be ce8d 9d3b
00000120: eaea 5cbe 57d3 863e 997a aebe 4f0d d93d
00000130: 707c 283e 3666 213e f624 b5bd df93 51bd
00000140: df19 9b3e 38af 1a3e 2a4c 97be 5292 b8be
00000150: 6e45 913e 0fb8 7abe c044 a6bc 1661 6fbe
00000160: 4c95 633e 6d85 ff3d 2800 a73e 6e25 a1be
00000170: a8fc 2e3e 2fa7 883e 6a52 96bd c26c 80be
00000180: 86f6 b8be 0a76 31be ca22 bfbd c370 c2bc
00000190: 4d52 64be a218 a7bd 721f dfbe 1584 203e
0.09812714 0.0014611038 -0.35019556 0.5428415 0.4514184 -0.22879982 -0.15528639 -0.06685937
0.21678062 -0.2935474 -0.20397161 -0.32397747 0.0817396 0.043199982 -0.68710154 -0.39864644
-0.3509391 0.34438354 -0.24485105 0.49876478 0.28042737 0.33292744 -0.52362925 -0.4842912
0.08388973 0.10913845 0.3009189 -0.10150427 0.0943822 -0.071640626 0.11874195 -0.35928348
-0.2985039 -0.33326715 0.236071 0.6177936 0.06316647 0.3065986 0.03515038 -0.020645823
-0.5659008 -0.12881806 -0.22609545 0.46831593 0.09628676 0.19465564 0.24025315 -0.097924925
0.13279624 0.23802544 -0.4466515 -0.4873459 0.42263567 -0.054418437 0.06953636 -0.29247132
-0.06673863 -0.22343294 -0.28657326 -0.3943682 -0.22804023 -0.38460597 0.30437335 -0.23975149
-0.43647027 0.040694468 -0.119149394 -0.10872579 -0.31081212 -0.0934834 -0.20943843 0.004808164
-0.21573988 0.26333115 -0.3407791 0.105982415 0.16453719 0.15761647 -0.0884494 -0.05116641
0.30293176 0.15105903 -0.29550296 -0.36049134 0.28373283 -0.24484275 -0.020296454 -0.23376879
0.22224921 0.12476621 0.32617307 -0.3147387 0.17088568 0.2669005 -0.07339938 -0.25082976
-0.36125582 -0.17330185 -0.09332807 -0.02373541 -0.2229702 -0.08158995 -0.43578678 0.15675385

disenlayers.0.lin_layers.0.bias f4 [8]
00000000: 2af1 febd ad22 313d 59f1 eabd c15a a2bd
00000010: 8855 00bd ec2a b8bd 0fa7 f93d f7a3 223e
-0.12448342 0.04324596 -0.11471815 -0.07927466 -0.03133157 -0.08992562 0.12190067 0.1588286

disenlayers.0.lin_layers.1.weight f4 [8, 13]
00000000: dfaa 61be e837 cebc f42b cebd 2861 273d
00000010: 7cb5 32be e5bf 82be a516 f63e 1bb1 a4be
00000020: 505c 92bd 2d4f 90be a8e8 bbbe d82b f0bd
00000030: a22c bb3d 1327 d33d 43e2 2abe 0dce 9cbe
00000040: 5720 9e3e c86b a3be 78ec 92be b56b ca3c
00000050: 231b cabe 0dd1 7ebc 8122 b43e 6819 a93e
00000060: 6d15 19bf 6a86 b53e ef0f 0b3e b1a6 04bf
00000070: 37ad 6e3e 6642 6b3e 725c fd3e 1454 343d
00000080: a2c0 b8be 8545 043f e841 043f 24ea e93e
00000090: 3352 bbbb 0d0f e13e c082 c43e 7663 b3bd
000000a0: 7320 6a3e fa04 50be 06d8 6dbe f88c 123f
000000b0: 7a63 4fbe 44e4 8f3e 3bfe 77bd 61c5 243f
000000c0: 3757 b1bd dd63 153f 45dc cebe c278 fb3d
000000d0: 45c8 d9bd 7f2b 2ebb e15d 2fbf ed0f 133d
000000e0: ce27 953d 79ba 44be 9a33 ba3e efaa ae3e
000000f0: fef4 4c3d c50f e13d 379b c4be ed35 003f
00000100: bf7a 7abe 4c87 f4bc fd24 37bf 7e35 9a3e
00000110: bbf7 d13e 05d6 eb3e e319 133f 9702 16bd
00000120: 5645 b2be dd80 acbe b732 db3b a4b6 443d
00000130: 3224 91be fd3b b73e 92ea 943e 5d07 ef3d
00000140: 2e3b 8ebe b30b dc3e 4aa6 cebe aa04 c4be
00000150: c0fd dc3e 7b44 40be b58c 913d 92f7 1c3f
00000160: 6c9b 603e 33dd 003f af76 013f eb9b 0ebe
00000170: 5e55 bf3e 00d4 61bd a611 81bc b1e3 9e3e
00000180: b883 a8be e307 b63d 3b2d cc3e 575c 21be
00000190: 4955 ddbe bce4 8a3e 2d19 c5bd 012c c6be
-0.22037838 -0.025173143 -0.10066977 0.04086414 -0.17452043 -0.2553703 0.4806415 -0.3216637
-0.071465135 -0.28185406 -0.3670094 -0.117271125 0.091393724 0.10310187 -0.16687874 -0.30625954
0.30884048 -0.31918168 -0.28696036 0.024709562 -0.3947383 -0.015552771 0.35182574 0.33027196
-0.5979832 0.35454112 0.13580297 -0.5181685 0.23308264 0.22974548 0.49484593 0.044025496
-0.36084467 0.5166858 0.51663065 0.45686448 -0.005716586 0.43956795 0.38381004 -0.08759205
0.22863941 -0.20314398 -0.23226938 0.5724635 -0.20252791 0.2810384 -0.060545187 0.64363676
-0.08659213 0.58355504 -0.40402427 0.12278892 -0.106339015 -0.0026576219 -0.6850262 0.03590386
0.07282983 -0.19211759 0.36367494 0.34114787 0.05003833 0.10989336 -0.3839967 0.50082284
-0.24460886 -0.02984967 -0.71540815 0.30118936 0.41009316 0.4606172 0.57461375 -0.036623564
-0.34818524 -0.33692065 0.0066893953 0.048025742 -0.28347927 0.35787955 0.29085213 0.11671326
-0.27779526 0.42977676 -0.40361243 -0.38284808 0.43162346 -0.18776123 0.07106916 0.6131526
0.21934289 0.50337523 0.5057172 -0.13926665 0.37369817 -0.05513382 -0.015755486 0.3103309
-0.32912993 0.08888223 0.39878258 -0.15757881 -0.4322913 0.27127635 -0.096239425 -0.38705447

disenlayers.0.lin_layers.1.bias f4 [8]
00000000: 3d95 463d d8ec a53d 8977 f3bb 34a9 efbd
00000010: 42b4 23be 0487 21be 3006 efbd ba8d b1bd
0.04848217 0.08101815 -0.007430021 -0.11702195 -0.15986732 -0.1577416 -0.11671102 -0.0866961

disenlayers.0.conv_layers.0.weight f4 [8, 8]
00000000: 0181 a1be 383e 4bbe ff54 86bf ef60 693f
00000010: e83e 0c40 cffc 53bf 2158 f9be e3b8 cfbe
00000020: e4b4 293f 6728 1dbf f4fd cc3f 6578 373f
00000030: 0eb3 193f cce8 593f 9370 31bf 3a10 7bbf
00000040: 380b 8f3f 8ab3 98bc 5b75 c5bf 7f4f 703e
00000050: 5988 b73f 33bb 88bf db4d 5ebe a1b1 ebbf
00000060: f164 84bf 1e34 e8be cedf 233f 580b 643f
00000070: a9f1 ad3f 638c 3e3e e198 803f e4d0 b33f
00000080: de05 eabf 40d3 aabe 5018 e4be a0f7 03c0
00000090: 6f78 e43f 9613 e1bf e92f 8dbf 35cf d03e
000000a0: be16 65be 984a adbf 5083 343e 6d23 f4be
000000b0: 1e72 2a3f 2fba 913f 1a39 b23e faea 7d3d
000000c0: 2e37 f4bf e383 a13f ec52 2740 6337 d63d
000000d0: bbd9 af3e 14b3 88bf 07b3 87bf 163f a63f
000000e0: b0f4 95bf b4df 9bbe 51e3 2f3e 991e 113f
000000f0: 8665 41be 0074 763f 6b91 d2bf 231f 55bf
-0.31543735 -0.19847953 -1.0494689 0.91163534 2.1913395 -0.8280763 -0.4870005 -0.40570745
0.6629164 -0.61389774 1.6015 0.7166808 0.6003884 0.85120845 -0.693124 -0.98071635
1.1175299 -0.018640298 -1.5426439 0.23467825 1.4338485 -1.0682129 -0.21709387 -1.8413583
-1.0343305 -0.45352262 0.64013374 0.8907981 1.3589374 0.18608241 1.0046655 1.4048123
-1.828304 -0.33364296 -0.445498 -2.0619888 1.7849253 -1.7584102 -1.1030246 0.40783086
-0.22371957 -1.3538389 0.17628217 -0.47683278 0.6658038 1.1384944 0.3480919 0.06199167
-1.907934 1.2618374 2.6144361 0.10459783 0.34345803 -1.067965 -1.060151 1.2988002
-1.1715298 -0.3044411 0.17176558 0.56687313 -0.18886384 0.9627075 -1.6450628 -0.83250636

disenlayers.0.conv_layers.1.weight f4 [8, 8]
00000000: 6c21 b6bf 4a3b cfbf 3a67 9a3e 2f94 873f
00000010: 7ac9 de3e 3bbf e4be 3b37 14bf 3fa0 56bf
00000020: d5d0 293f dd5c f53f 6dd9 ddbe 16e8 f6bf
00000030: 3b24 34bf 7e45 04be 736c ffbe 7f24 80bf
00000040: 2e2a 14bf 98c1 a93f 56f1 8dbf 447d 04c0
00000050: 4fb2 8ebf 0d34 b9be 9fff 063f 94a4 dabf
00000060: 73e2 2bbf fd5e 853f 12f9 703e 6b6e 8b3e
00000070: ca07 7e3e c7ad f3be 3cc4 a13f 52ae d1bf
00000080: cfc6 cbbd 78c4 cfbf bc7a a1bf b246 0940
00000090: ba1a 0140 b4bf 433f 8532 463f 471a 5fbc
000000a0: 1507 b5be b563 e93d 3b6b babe a059 73bf
000000b0: 133f 863f eb78 8abe 8b39 a6bf c54f c93f
000000c0: 3074 f9be 3ef5 0e3f 737a d5bf 783d f9bd
000000d0: 66b7 97bf 2594 f8bf e521 903f 95e4 0fbf
000000e0: cc9a 883d bf77 d4be d44e e0be db92 80bf
000000f0: d4ed 6cbf 7675 c1bf c8bb 093e 6edd b33e
-1.422895 -1.6189969 0.3015688 1.0592097 0.4351309 -0.44677147 -0.57896775 -0.83838266
0.6633428 1.9168965 -0.43329945 -1.9289577 -0.70367783 -0.12917134 -0.49887428 -1.0011138
-0.5787686 1.3262205 -1.1089275 -2.0701456 -1.1148165 -0.36172524 0.52733797 -1.7081475
-0.6714241 1.0419613 0.23532513 0.2723268 0.24807659 -0.4759352 1.2638011 -1.6381323
-0.09950029 -1.6231833 -1.261558 2.14494 2.0172563 0.7646439 0.77420837 -0.013617105
-0.35356966 0.11395971 -0.36409935 -0.9505863 1.0487999 -0.27045378 -1.2986311 1.5727469
-0.48721457 0.5584296 -1.6677994 -0.12169927 -1.1852844 -1.942021 1.1260344 -0.56208163
0.0667015 -0.4149761 -0.4381014 -1.0044817 -0.92550397 -1.5113971 0.13450539 0.35129875

disenlayers.0.bias_list.0 f4 [1, 8]
00000000: 28bd 06bf a6d5 52be 8b63 59bf 9868 8fbf
00000010: 21bf 0dbf 2189 8fbf 53e8 1ac0 d27d 4dbf
-0.5263238 -0.20589313 -0.84917516 -1.1203794 -0.55369765 -1.1213723 -2.42043 -0.8027011

disenlayers.0.bias_list.1 f4 [1, 8]
00000000: 8e6f 42bf bdd7 bbbd e744 6b3f f038 1340
00000010: 3245 cbbd 6dee 303f b0da 29bf 1bf9 d1bf
-0.7595147 -0.09172008 0.9190201 2.3003502 -0.09925307 0.6911381 -0.66349316 -1.6404146

weight f4 [1, 16]
00000000: 53ee d93e 131d f7bd 1824 e43e 12e7 c63e
00000010: 3285 6abd 6411 8bbd 68c3 943e fd67 5c3e
00000020: c159 87bd 324a e63d b115 abbd 9cdd cabe
00000030: e063 9e3d 7a53 903e eb66 2abd f376 12bd
0.4256464 -0.12066092 0.44558787 0.38848168 -0.05725593 -0.067904264 0.29055333 0.21524043
-0.06608916 0.112446204 -0.08353747 -0.396222 0.077338934 0.28188688 -0.041602056 -0.03575797

weight f4 [2, 8]
00000000: b687 92be 2af3 4fbf d90b 5abf c96e 723e
00000010: 9bd5 9c3d 5668 dcbc 46de 28bf 424b f3bc
00000020: b158 3bbf 5e4a 4f3f d41d 073e 5069 40bf
00000030: 4ade 39bf 7e30 7b3e f7f4 cd3e 1d1b 843f
-0.28619164 -0.81230414 -0.8517433 0.23675074 0.076579295 -0.02690522 -0.6596416 -0.029698972
-0.7318221 0.8097285 0.13194972 -0.75160694 -0.7260481 0.24530217 0.40225956 1.0320774

bias f4 [2]
00000000: 7684 183d c784 18bd
0.0372357 -0.037236
