Weights/model_weight.pt_income.pth (torch, 7747 bytes, 15 tensors)

assigner.layers.0.weight f4 [2, 28]
-0.21050629 0.49739894 0.52530706 0.21338826 -0.6455561 -0.45521888 -0.055820614 0.2386744
0.21635239 0.33982652 -0.17566769 -0.21116509 -0.15593892 0.33165285 0.014508437 0.014528194
0.5689119 -0.25945884 -0.62459004 0.71857506 -0.094509125 0.44597796 -0.12736152 -0.3852885
0.08737293 -0.22304028 -0.5809488 -0.36600283 0.09692106 0.038475793 0.3029035 -0.31512913
0.5663971 -0.0410292 -0.0067918887 0.27422222 0.18946168 -0.15826072 0.32144773 -0.23357607
0.07020882 0.23653227 0.19655944 0.17883414 -0.35042718 0.22294675 0.12366383 -0.053833913
-0.029719844 -0.0046007317 -0.12532274 0.5992346 0.16872129 -0.061236445 0.3757628 -0.08275975
00000000: f68e 57be 13ab fe3e 867a 063f 7482 5a3e
00000010: 2a43 25bf 7312 e9be 28a4 64bd 1067 743e
00000020: 7b8b 5d3e befd ad3e 3be2 33be a93b 58be
00000030: 74ae 1fbe 67ce a93e ccb4 6d3c aa07 6e3c
00000040: 36a4 113f cad7 84be 22e5 1fbf 89f4 373f
00000050: 008e c1bd 3957 e43e 0f6b 02be 8944 c5be
00000060: 94f0 b23d ac64 64be 10b9 14bf b964 bbbe
00000070: 8c7e c63d cb98 1d3d 2b16 9b3e 9b58 a1be
00000080: 66ff 103f 3c0e 28bd 7e8e debb db66 8c3e
00000090: 3e02 423e 190f 22be cc94 a43e 912e 6fbe
000000a0: a4c9 8f3d 8435 723e e146 493e 4c20 373e
000000b0: 316b b3be 274c 643e 7643 fd3d f380 5cbd
000000c0: 0877 f3bc bcc1 96bb 9b54 00be 7067 193f
000000d0: 46c5 2c3e 11d3 7abd fb63 c03e f27d a9bd

assigner.layers.0.bias f4 [2]
-0.19041513 0.12836583
00000000: 2ffc 42be 5572 033e

assigner.layers.1.weight f4 [2, 2]
0.7567183 0.16556977 -0.36966655 1.2901207
00000000: 4ab8 413f 1f8b 293e ef44 bdbe ad22 a53f

assigner.layers.1.bias f4 [2]
-0.118588485 0.11858848
00000000: 85de f2bd 84de f23d

disenlayers.0.lin_layers.0.weight f4 [8, 14]
-0.009987101 0.003049603 0.3647508 0.17315099 0.09669372 0.2712378 -0.046592195 0.3999192
0.19339351 -0.12213868 -0.083370075 -0.13290904 0.03553916 0.12001542 0.3039558 -0.29586977
0.5417727 -0.15085769 -0.13227826 0.35340017 -0.35049236 -0.37971684 -0.011322994 -0.08983545
0.017187426 0.10355255 -0.20889825 -0.1554489 0.32693112 0.052837647 0.26008213 0.46753547
-0.36643508 0.06100096 -0.08874171 0.18116829 0.40405193 0.20776084 0.23863827 -0.4851053
-0.39937723 -0.38382754 -0.016013078 0.27024126 -0.5164714 -0.294661 -0.11196789 0.42577213
-0.100003004 0.3639397 0.4050975 0.37055555 0.17953104 -0.033435673 0.33287874 0.46470076
0.20409435 -0.15384588 0.51780057 -0.3951853 0.48533094 -0.09220339 -0.4344803 0.16093622
0.010772224 0.10218861 -0.07803331 0.42909694 0.5544174 0.09192899 -0.25544727 0.27626297
-0.34204367 -0.5557399 -0.38328573 -0.38735688 0.42607203 0.10314606 -0.49984422 -0.09887148
-0.27189177 0.34145555 0.18900089 -0.016571539 0.30298507 -0.4682754 -0.35127726 0.53597564
-0.21934591 -0.014579486 -0.074093126 0.21695876 0.50923187 0.22743458 -0.043840107 0.033977956
-0.39071304 0.61360896 -0.38683465 -0.3978589 -0.50504583 -0.007250109 -0.42517647 -0.19320145
-0.29613185 -0.44229743 0.40893468 0.20649596 0.18038104 0.09727807 -0.090256914 -0.15564205
00000000: f0a0 23bc d9db 473b 9ec0 ba3e 7e4e 313e
00000010: 5b07 c63d aedf 8a3e 75d7 3ebd 36c2 cc3e
00000020: f308 463e d823 fabd eebd aabd 4f19 08be
00000030: 8391 113d a5ca f53d 18a0 9b3e 3e7c 97be
00000040: 9eb1 0a3f 707a 1abe f473 07be def0 b43e
00000050: bc73 b3be 3f6a c2be 1484 39bc a6fb b7bd
00000060: a5cc 8c3c 5c13 d43d 6ce9 55be ff2d 1fbe
00000070: 8463 a73e 4a6c 583d 7c29 853e cf60 ef3e
00000080: 619d bbbe 25dc 793d 37be b5bd 2e84 393e
00000090: e5df ce3e 42bf 543e 975d 743e b95f f8be
000000a0: 2c7b ccbe 0b85 c4be dc2d 83bc 105d 8a3e
000000b0: 7837 04bf cedd 96be 6c4f e5bd cefe d93e
000000c0: 60ce ccbd 4e56 ba3e f168 cf3e 75b9 bd3e
000000d0: fcd6 373e d8f3 08bd 156f aa3e 42ed ed3e
000000e0: 1cfe 503e c689 1dbe 948e 043f ba55 cabe
000000f0: 4c7d f83e 22d5 bcbd 3474 debe 77cc 243e
00000100: fb7d 303c 4348 d13d eecf 9fbd 98b2 db3e
00000110: 4cee 0d3f 4445 bc3d fcc9 82be 5772 8d3e
00000120: 5920 afbe f844 0ebf 073e c4be a453 c6be
00000130: 1d26 da3e 3e3e d33d 95eb ffbe 217d cabd
00000140: 6635 8bbe 43d3 ae3e 7389 413e 09c1 87bc
00000150: dc20 9b3e cbc1 efbe 9dda b3be b335 093f
00000160: 379c 60be ccde 6ebc 23be 97bd 702a 5e3e
00000170: 055d 023f 9ce4 683e af91 33bd 782c 0b3d
00000180: 8a0b c8be 7a15 1d3f 310f c6be 29b4 cbbe
00000190: af4a 01bf 5392 edbb bbb0 d9be 9ad6 45be
000001a0: 989e 97be cf74 e2be e35f d13e ad73 533e
000001b0: cfb5 383e ba39 c73d 9ed8 b8bd a160 1fbe

disenlayers.0.lin_layers.0.bias f4 [8]
0.082800776 -0.11789477 0.04522018 -0.0004954255 -0.09181285 -0.18687133 0.23958558 0.1943107
00000000: 7493 a93d d072 f1bd cc38 393d 71df 01ba
00000010: 6008 bcbd 335b 3fbe ec55 753e 62f9 463e

disenlayers.0.lin_layers.1.weight f4 [8, 14]
-0.1754272 -0.118967056 0.38851136 -0.03556785 -0.08681006 -0.11390068 -0.16722372 -0.16120471
0.12036722 -0.26585597 -0.46911216 0.1908335 -0.29519823 0.33144182 -0.5934606 -0.28621748
0.20330906 0.12849116 0.03688195 0.6467593 0.4291171 0.27133223 -0.04962535 0.011887905
-0.5208468 0.32614246 -0.34630075 -0.4655485 0.09456379 -0.19925535 -0.10096248 0.05118057
0.24297567 0.20343995 -0.4174799 -0.14708385 0.039369512 0.031576246 -0.29307318 -0.32879612
-0.026082091 0.2841785 0.22133979 0.03398563 -0.02331097 -0.4579815 0.025236085 0.20703694
0.04120661 -0.20766631 0.19166122 0.1970228 0.3165775 -0.12647104 0.3640843 0.39294395
-0.11279826 0.4194541 -0.1705757 -0.60315424 -0.12936759 -0.19131276 -0.29279676 0.021566914
0.050311647 -0.22000451 0.10849423 0.49559405 0.4130393 -0.106413744 0.5946178 -0.20878331
0.32325545 -0.1918818 0.7680627 -0.12139257 0.22685196 -0.24928902 -0.3448955 0.35084724
0.21688533 0.3555981 -0.14492522 0.19411716 -0.33743975 0.23466411 -0.045900043 -0.615171
0.04450699 0.03203295 -0.2538577 0.50661457 0.2072593 0.30615786 0.23075016 0.17052788
0.31760547 -0.044762436 0.3658963 0.27989915 0.17831635 0.16913289 0.122518785 -0.12427372
0.16298231 -0.46820694 -0.31908894 -0.24054901 -0.17558205 0.3251271 0.28396618 -0.13063085
00000000: 30a3 33be 00a5 f3bd f6ea c63e 98af 11bd
00000010: 79c9 b1bd c244 e9bd b23c 2bbe d912 25be
00000020: 1783 f63d 461e 88be 782f f0be db69 433e
00000030: 3924 97be beb2 a93e 09ed 17bf 198b 92be
00000040: 4030 503e 3093 033e 8711 173d 0492 253f
00000050: 3db5 db3e 0fec 8a3e f343 4bbd 7dc5 423c
00000060: 3756 05bf 25fc a63e 554e b1be 5f5c eebe
00000070: a9aa c13d 9809 4cbe 6bc5 cebd b8a2 513d
00000080: 9dce 783e 9052 503e edbf d5be 269d 16be
00000090: ed41 213d 1856 013d b00d 96be f757 a8be
000000a0: 1caa d5bc d87f 913e e6a6 623e 8434 0b3d
000000b0: a6f6 bebc 8d7c eabe e8bb ce3c 7e01 543e
000000c0: 43c8 283d 7aa6 54be d742 443e 58c0 493e
000000d0: 7216 a23e a081 01be 4269 ba3e f32f c93e
000000e0: c602 e7bd b0c2 d63e 65ab 2ebe 5168 1abf
000000f0: f078 04be 7ee7 43be 75e9 95be 19ad b03c
00000100: 9613 4e3d dd48 61be 3932 de3d 81be fd3e
00000110: e379 d33e 73ef d9bd df38 183f 4bcb 55be
00000120: bd81 a53e aa7c 44be c29f 443f ab9c f8bd
00000130: e14b 683e 9f45 7fbe 2596 b0be 40a2 b33e
00000140: 3017 5e3e f410 b63e 4767 14be a6c6 463e
00000150: e7c4 acbe ca4b 703e af01 3cbd d97b 1dbf
00000160: f64c 363d fc34 033d a3f9 81be 7eb1 013f
00000170: c83b 543e b9c0 9c3e c549 6c3e dc9e 2e3e
00000180: 2f9d a23e d158 37bd c356 bb3e f14e 8f3e
00000190: 9098 363e 2c31 2d3e 21eb fa3d 3883 febd
000001a0: d6e4 263e d2b8 efbe a05f a3be 7b52 76be
000001b0: c8cb 33be 0f77 a63e 0464 913e 18c4 05be

disenlayers.0.lin_layers.1.bias f4 [8]
0.10880269 -0.13754605 -0.06389935 0.024939606 -0.1987381 0.13441412 -0.106922776 -0.054157708
00000000: f2d3 de3d dfd8 0cbe aadd 82bd 254e cc3c
00000010: 0082 4bbe dba3 093e 54fa dabd 79d4 5dbd

disenlayers.0.conv_layers.0.weight f4 [8, 8]
-1.1357038 0.0073696184 -0.5946063 -0.29583392 0.9156456 -1.0024272 0.7563924 0.26980677
-1.0303648 2.5556524 -1.5694882 0.07871519 0.03542992 0.27627775 -0.8954914 1.8555334
-1.0252913 0.5693581 -0.27288032 -0.0889283 -2.0207908 -0.9466771 -0.19093436 0.4915021
0.2828998 -1.9046111 -1.0222086 -0.5708464 0.9172205 -0.9247026 0.2894379 1.4524103
1.6424786 2.7446215 -0.32288837 -0.006341486 -2.5581434 0.066977106 0.47736233 -0.32156184
1.8930892 1.0568717 0.5728933 0.7842555 -1.9346766 0.733354 0.3122548 0.85285944
0.47407112 0.39554423 2.3563402 0.17924954 0.28466773 0.39838693 -0.021361604 -0.2731802
-0.14888074 0.25193906 -0.29502776 0.38551033 0.37986556 0.33288375 0.118383884 2.207545
00000000: be5e 91bf d77c f13b 1e38 18bf 8b77 97be
00000010: c067 6a3f 894f 80bf efa2 413f 1d24 8a3e
00000020: fee2 83bf cf8f 2340 fde4 c8bf 6e35 a13d
00000030: f71e 113d 4774 8d3e ed3e 65bf 1e82 ed3f
00000040: bf3c 83bf 74c1 113f f8b6 8bbe 0a20 b6bd
00000050: a354 01c0 6e59 72bf 4c84 43be 2aa6 fb3e
00000060: 3ed8 903e 4cca f3bf bbd7 82bf fd22 12bf
00000070: f6ce 6a3f 4fb9 6cbf 3431 943e 95e8 b93f
00000080: bd3c d23f e1a7 2f40 a051 a5be 3dcc cfbb
00000090: 9fb8 23c0 4b2b 893d d668 f43e c1a3 a4be
000000a0: bf50 f23f 9247 873f 23a9 123f f8c4 483f
000000b0: 7ca3 f7bf 16bd 3b3f dcdf 9f3e ff54 5a3f
000000c0: 73b9 f23e c684 ca3e 47ce 1640 318d 373e
000000d0: f8bf 913e 5ff9 cb3e 88fe aebc 46de 8bbe
000000e0: 3174 18be 28fe 803e e10d 97be 9c61 c53e
000000f0: bd7d c23e bd6f aa3e 4073 f23d 6b48 0d40

disenlayers.0.conv_layers.1.weight f4 [8, 8]
0.9488459 -0.1415615 -0.4876285 1.0779618 0.17102885 -1.5701008 1.4973497 0.23207043
0.34474227 -0.35581675 1.7555236 0.0062604514 1.152848 0.47558224 -0.73788357 -2.258116
-0.02375114 -0.51703274 -1.7796603 1.0866432 0.27469486 0.15040828 -0.95619965 0.6726003
-0.14061059 1.0542214 -0.40395844 -2.0809324 -0.4898534 -0.6188099 2.2966406 1.8922474
1.0564448 -1.1243932 -0.8736641 0.8082213 -1.2464181 1.2744666 -0.27438936 -2.6102257
-1.1589444 -0.14642991 0.8044056 -0.31111547 2.5041783 0.7466283 0.43277693 -1.58744
-0.41704077 -1.6688102 0.5091801 0.5862095 0.015109525 -0.42466274 0.30698782 -0.117541336
0.70379823 2.864397 -0.2429263 -0.57063675 1.3274984 0.20541127 -0.54290074 -1.720693
00000000: 91e7 723f 7ff5 10be 71aa f9be a7fa 893f
00000010: 3022 2f3e 10f9 c8bf 28a9 bf3f dfa3 6d3e
00000020: 0f82 b03e 9d2d b6be ffb4 e03f 7924 cd3b
00000030: 8690 933f 847f f33e f0e5 3cbf f984 10c0
00000040: c091 c2bc 425c 04bf e9cb e3bf 2017 8b3f
00000050: cea4 8c3e a104 1a3e 80c9 74bf 892f 2c3f
00000060: 39fc 0fbe baf0 863f a4d3 cebe ff2d 05c0
00000070: 11ce fabe 536a 1ebf 29fc 1240 2a35 f23f
00000080: 9539 873f 1eec 8fbf 73a8 5fbf 97e7 4e3f
00000090: a18a 9fbf b921 a33f c37c 8cbe f00d 27c0
000000a0: 4a58 94bf b9f1 15be 87ed 4d3f 874a 9fbe
000000b0: 7544 2040 0823 3f3f f094 dd3e 3c31 cbbf
000000c0: 5e86 d5be 939b d5bf a159 023f d311 163f
000000d0: f18d 773c 656d d9be 822d 9d3e 83b9 f0bd
000000e0: 1f2c 343f 4852 3740 acc1 78be 4015 12bf
000000f0: 78eb a93f 5557 523e 8bfb 0abf ab3f dcbf

disenlayers.0.bias_list.0 f4 [1, 8]
-0.65360373 0.3883795 0.024791367 -0.39649698 -1.7114562 -1.2140341 0.0693883 -1.4747169
00000000: 9352 27bf aed9 c63e 4417 cb3c a701 cbbe
00000010: ff10 dbbf 7865 9bbf 741b 8e3d 86c3 bcbf

disenlayers.0.bias_list.1 f4 [1, 8]
0.4567857 -1.6325754 0.6205497 -0.8110151 1.0453942 0.31318814 -0.04214266 2.194186
00000000: d1df e93e 3bf8 d0bf 58dc 1e3f b09e 4fbf
00000010: 7acf 853f 325a a03e c89d 2cbd 8b6d 0c40

weight f4 [1, 16]
-0.31493938 0.3561388 -0.09055154 -0.2258941 -0.42915368 -0.8941585 0.026481453 -0.47674623
-0.6243755 0.12710579 0.3815349 0.14005487 0.014183074 -0.048725616 0.22490181 -0.7883545
00000000: bc3f a1be d357 b63e 1673 b9bd c850 67be
00000010: 08ba dbbe 92e7 64bf a2ef d83c 1518 f4be
00000020: 13d7 1fbf 0528 023e 8b58 c33e 8b6a 0f3e
00000030: 2060 683c 8394 47bd a94c 663e 9ad1 49bf

weight f4 [2, 8]
0.04320816 -0.6466859 0.82433426 0.21257098 -0.39638075 0.8011237 -0.49410194 0.26193964
-0.023542548 0.7496012 -0.41455176 -0.86952233 0.8955242 -0.56049836 -0.023157435 0.37568054
00000000: 0afb 303d 358d 25bf 9207 533f 35ac 593e
00000010: 6bf2 cabe 7116 4d3f eefa fcbe f41c 863e
00000020: 4ddc c0bc dde5 3f3f 2140 d4be 0499 5ebf
00000030: 1341 653f d27c 0fbf a9b4 bdbc 3359 c03e

bias f4 [2]
0.10362537 -0.10362543
00000000: 8a39 d43d 9239 d4bd
