Weights/model_weight.pt_bail.pth (torch, 7967 bytes, 15 tensors)

assigner.layers.0.weight f4 [2, 36]
00000000: 642c 853e c518 bc3d d901 8dbe 52b0 8d3e
00000010: b574 4f3e 15a5 c13e e4e1 0c3e 1cc8 44be
00000020: f45a 773e 94b0 183e 6588 3cbc 6849 2e3e
00000030: f61c e5bc a832 edbe e3a7 09bf ac6e 6dbe
00000040: bc97 c83e fcee 8abb 3580 6d3e 5d5d 783e
00000050: 0849 6abe 57c4 55be ba62 c9be b81b a93d
00000060: f35a 703d 6f2e 70be 7216 b1be 93cd ad3e
00000070: 7e4f 1c3e bfc8 ad3d 9e41 f8be e6b1 4b3c
00000080: fc96 aabe 9d4f 5abe cc92 773e f944 a43e
00000090: c630 d23c b64d eb3c e554 9a3e b33f 6bbe
000000a0: 397d cabc 7cc4 ae3c 150e 593e c349 053e
000000b0: 7fc5 82be aa21 823e 4bf4 96be 54d0 8c3e
000000c0: 2a81 e43d 3a0b d6be 4998 693e 093a d6be
000000d0: 4555 e93e 3a14 0bbf bbac 943e 6344 2cbe
000000e0: 8425 533d a12b 533e 0c07 84be 5e28 4dbe
000000f0: 11d8 98bc 0a5d 8b3d 95d1 ddbe 2df4 acbe
00000100: 913c 42be 9404 a8be 24d0 0dbe af44 063d
00000110: dba5 303e 9ab9 123e a33c 243f 2ac5 b53e
0.2601043 0.09184412 -0.27540472 0.27673584 0.20259364 0.3782126 0.13758045 -0.1921696
0.2415579 0.14911109 -0.011507128 0.1702019 -0.027967911 -0.4632771 -0.537718 -0.23186749
0.39178264 -0.004239915 0.23193438 0.24254365 -0.22879422 -0.20875679 -0.39333135 0.0825724
0.058680486 -0.23455213 -0.34587437 0.33945903 0.15264699 0.08485555 -0.48487562 0.012432551
-0.33318317 -0.21319433 0.24177092 0.32083872 0.025658023 0.028723579 0.30142894 -0.22973518
-0.024717914 0.021333925 0.21196778 0.13016419 -0.25541303 0.2541631 -0.29483256 0.27502692
0.111574486 -0.4180544 0.22811998 -0.41841152 0.45572868 -0.5432774 0.29038033 -0.16822962
0.05154945 0.20622112 -0.25786626 -0.2003493 -0.018657716 0.06804855 -0.4332396 -0.3378004
-0.18968417 -0.32815993 -0.1384893 0.032780346 0.17250769 0.14328614 0.64155024 0.35501987

assigner.layers.0.bias f4 [2]
00000000: 9ac8 193e 11bb 203e
0.1501793 0.1569636

assigner.layers.1.weight f4 [2, 2]
00000000: 121a 80bd a339 913e 45d0 88bf cf7f 28bf
-0.062549725 0.28364286 -1.0688559 -0.6582002

assigner.layers.1.bias f4 [2]
00000000: c9c4 163e cac4 16be
0.14723505 -0.14723507

disenlayers.0.lin_layers.0.weight f4 [8, 18]
00000000: d5bc c53d c0ac 483d 79c9 fcbd 055c de3e
00000010: 51d3 883e 5343 59be 4534 78be d4e2 0bbe
00000020: a5ae 4a3e 8d5f 07bf e21d 4dbe 62c8 88be
00000030: 8d01 da3c fcd8 a2bd 44e0 b9be f493 b1be
00000040: bd2f 00bf b1d7 403e 798f 95be f685 843e
00000050: ca3e e23e 8e5f 563e 8d06 a6be 6e84 a3be
00000060: 033b 9a3e ec7c 3d3d 8a68 013e 98fe 133e
00000070: 1f57 f03d 6e4d a9be 7c61 34bd 51b9 e9be
00000080: f747 f2be 6734 a9be 1272 c03e d7f5 1c3f
00000090: 8bbf fdbd d9e9 7c3e 676e c0bd 4a76 61be
000000a0: 1139 3abe 9859 40bd 8e94 7dbd 2b5d aa3e
000000b0: 555b 493c 2d90 ef3d 5ee8 733e 9991 2abe
000000c0: 644b c73d 30e3 4e3e a575 d4be 1037 8abe
000000d0: 2195 e63e 19e2 0b3e 3d76 dfbc 38c8 6abe
000000e0: 5955 75bc 811d b4be 1725 03be 57ef 07be
000000f0: 59c3 2c3d 691b 15be 08a5 7c3e 219c 3abe
00000100: 3c7f bbbe 6c83 513e afd9 9fbd 7286 61bb
00000110: d55a 8ebe e2b2 71be d572 983d d639 5f3e
00000120: 0a92 8dbe 99df ec3d fb7a e8be b7d9 b9bc
00000130: acac 593d 344f 403e f4cb 1d3e c024 64be
00000140: 4d50 d03c 435c df3e 0140 92be f8a1 a5be
00000150: d6b2 a53e cde1 66be 4147 62bd 9b9d ddbd
00000160: b9a4 133f 3d9b bd3e 1c6e cd3e 0ad2 7abe
00000170: 2515 c23d 713e 853e 464f a53d 3c9b 8d3d
00000180: c87f 64be aef1 c7bd 42b6 363e 99bc 3bbd
00000190: d34e 913d 2a9a 883e 0c68 06be b05b ab3e
000001a0: f883 99bd 01e8 2b3c d097 14bf eef5 c53d
000001b0: beae d9be 65e0 113e 10f4 813e 3462 9339
000001c0: 6b01 a1be 7a8e a33d 22d1 81be 1295 1abd
000001d0: a442 7dbc 536a 873e 07a5 cb3e 8ac0 9bbe
000001e0: 22c5 553e 43a7 643e 2e4c ddbd e514 3ebe
000001f0: 54cb a43e bb8e 9bbe 1faf 71bd ba8c 8cbd
00000200: 606e 9fbe 89ab ca3e aff5 21bd a60c ec3c
00000210: 2a87 6ebe 2f6b 84be 8e1f 143c 97d0 09be
00000220: 2aec 8ebc 836f 80be 3a8e 02bf 0327 643d
00000230: a8a8 0cbe 89f2 f03e 1f64 983d 3a9f 64be
0.096551575 0.048992872 -0.12343115 0.4342958 0.26723722 -0.21217088 -0.24238689 -0.13660747
0.19793184 -0.52880174 -0.2003093 -0.2671538 0.026612068 -0.07951543 -0.36303914 -0.34683192
-0.5007284 0.1883228 -0.29211023 0.25883454 0.4418853 0.20934889 -0.32426873 -0.31936973
0.30123147 0.046261713 0.12637535 0.14452589 0.11735367 -0.33066887 -0.04403828 -0.45649198
-0.4732053 -0.33047792 0.3758703 0.6131262 -0.123900495 0.24698581 -0.093960576 -0.2201778
-0.18185832 -0.046960443 -0.06190925 0.33274207 0.012289842 0.11697421 0.2381911 -0.16657104
0.097311765 0.20203853 -0.41496006 -0.26995134 0.4503565 0.13660468 -0.02727806 -0.2292794
-0.014973962 -0.3517876 -0.12807117 -0.13274895 0.042178486 -0.14561237 0.2467233 -0.18223621
-0.3662051 0.2046029 -0.07805192 -0.003441241 -0.27803674 -0.23603395 0.074437775 0.21799406
-0.2765048 0.11566085 -0.45406327 -0.022686822 0.05314319 0.18780214 0.15409833 -0.22279644
0.025428915 0.43625078 -0.28564456 -0.32350135 0.32363003 -0.22547074 -0.055243734 -0.108210765
0.5767322 0.370325 0.4012307 -0.24494186 0.09476689 0.26024202 0.08071761 0.06914374
-0.2231437 -0.097628936 0.17842963 -0.045834158 0.07095113 0.26680118 -0.13125628 0.3346839
-0.07495874 0.010492326 -0.5804415 0.09666048 -0.4251613 0.14245756 0.25381517 0.00028111192
-0.31446394 0.079861596 -0.25354868 -0.03773982 -0.015457783 0.26448306 0.39774343 -0.30420333
0.20875981 0.2232943 -0.10805546 -0.18562658 0.32186377 -0.30382332 -0.0590049 -0.06862779
-0.31138897 0.39583996 -0.039540943 0.028814625 -0.23293748 -0.25863025 0.009040726 -0.13458477
-0.017446596 -0.25085077 -0.5099827 0.055701267 -0.13736212 0.4706004 0.074409716 -0.22326365

disenlayers.0.lin_layers.0.bias f4 [8]
00000000: 7f87 06be 0044 e03d 5ea5 94bc 9662 13ba
00000010: da1c 273e 991c 11be 1a1f fc3a 9438 a43d
-0.13137625 0.1095047 -0.01814526 -0.00056222954 0.163196 -0.14171065 0.0019235343 0.08018604

disenlayers.0.lin_layers.1.weight f4 [8, 18]
00000000: 3975 f8bd 86ad 54bd 8801 52be f533 93bd
00000010: 33a7 2bbe 1eaf 64be 56e6 f63e 85f6 b1be
00000020: f3b2 33be c108 903b 8450 b4be 7d08 8ebd
00000030: 62fd 353e f99a 2b3d c3a6 b4be a67b 7abe
00000040: a176 0f3f 52b5 b3bd 6073 39be d138 13be
00000050: 9615 89be e798 d9bd 1e08 cd3e 5cd8 033f
00000060: cc98 b3be a32e d93e 6b83 92bc b9fa 91be
00000070: 45bd 073e 6711 203e ee1c c23e fc49 53bd
00000080: 8314 c8be 52d8 063f ca4b 2c3f 4a65 cc3e
00000090: b78b 4cbd d1e3 d53e c5d1 a83e 3d7e ab3b
000000a0: a404 c43e c205 a9bd ea11 a6be eb10 933e
000000b0: 85be 43be 2c6a 723e 1413 9ebd b42b 973e
000000c0: c197 ddbd 2786 083f a79b c3be 5ff4 1abd
000000d0: 4c15 c5be a617 233e d5eb 10bf 2e04 85bd
000000e0: 3257 a1bc a6ca 7dbe a45c bd3e 37e6 c73d
000000f0: 4a03 2fbe 4f81 913d 60e5 cabe 4f2e 553e
00000100: 6b99 64be b399 febc 97ec d3be 2267 bd3e
00000110: 1674 953e 49a4 433e d6dd c23e 22c9 4b3d
00000120: c995 10bf ba7f 8cbe 4971 3ebd 0e0f 69bd
00000130: 71fa 95be 31c2 a03e e3a6 8b3e c9b0 983e
00000140: cc38 423a fc02 483e e9ae b5be 0a71 c7be
00000150: c82a 113f ade7 89be 2619 183d 041c 8e3e
00000160: 8753 5f3e 431c 693e 783d cf3e 1053 38bd
00000170: 6e19 e13e 660c 9bbd f7ab 49bd f858 313e
00000180: 58c5 b6be 6d6c 41bd ccad d93e 1851 58be
00000190: 3113 e3be 3a9f f03d d7ad ffbd 9822 92be
000001a0: 72f7 d03d 6959 adbd 8daa 2abd 94bf babe
000001b0: 16a7 56be cc55 0c3e d6fa eb3d 6c62 503e
000001c0: 8b3d 923e e880 8dbe cb29 1dbd 40ac c43e
000001d0: d0a6 f0be 82a2 9ebd b79b 19be 179e 01bd
000001e0: d6fc 2fbe b38b 1e3e 1e73 e6be f379 81be
000001f0: dad3 943e c206 18be 6abf adbe 42c6 b3bd
00000200: 4bcf 833e acf4 aebe 3e03 32bd cc17 1abe
00000210: 93e2 db3d 5937 c93e e524 51be d759 90be
00000220: 1e33 a7bd 803b 36be e12a efbe 1ae9 d83d
00000230: 8d7b 6dbe 843b 3fbd 8af6 053f a7f0 663e
-0.121317334 -0.051923297 -0.20508397 -0.071876444 -0.16763 -0.22332427 0.48222607 -0.34758392
-0.17548732 0.004395575 -0.3521768 -0.06935213 0.17772439 0.04189584 -0.3528348 -0.2446123
0.5604039 -0.087748185 -0.18110418 -0.14377142 -0.2677428 -0.10624867 0.40045255 0.51502013
-0.35077512 0.42418393 -0.01788493 -0.285116 0.13255794 0.15631638 0.37912697 -0.05158423
-0.3907815 0.5267383 0.67303145 0.39921027 -0.04993793 0.41775373 0.3297254 0.0052335546
0.3828479 -0.08253051 -0.32435542 0.28723845 -0.19115646 0.23673314 -0.077184826 0.2952553
-0.108199604 0.533297 -0.3820469 -0.037830707 -0.3849281 0.1592699 -0.5660985 -0.06494938
-0.019694898 -0.24784335 0.36984742 0.09760707 -0.17091098 0.07104742 -0.39628124 0.20818447
-0.2232415 -0.031079149 -0.4139144 0.36992747 0.2919013 0.19105639 0.38059872 0.049752362
-0.56478554 -0.27441198 -0.046494756 -0.056899123 -0.29292634 0.31398156 0.27275762 0.29822376
0.0007408976 0.19532388 -0.35485008 -0.3895343 0.56705904 -0.26934567 0.03713336 0.2775575
0.21809207 0.22764687 0.40476584 -0.04500109 0.43964714 -0.07570724 -0.049236264 0.17319095
-0.35697436 -0.047222544 0.4251541 -0.21124685 -0.4435058 0.1174912 -0.12484329 -0.28542018
0.102034464 -0.08464319 -0.041666556 -0.36474288 -0.20962176 0.13704604 0.115224525 0.20350045
0.2856258 -0.2763741 -0.038369935 0.38412666 -0.47002268 -0.0774584 -0.15000807 -0.031644907
-0.17186293 0.15482979 -0.45009702 -0.25288352 0.2906788 -0.14846328 -0.339351 -0.08778049
0.2574409 -0.34171045 -0.043460123 -0.1504814 0.10736575 0.3930004 -0.2042423 -0.28193542
-0.08164047 -0.17796135 -0.46712402 0.105913356 -0.23191662 -0.046687618 0.52329314 0.22552739

disenlayers.0.lin_layers.1.bias f4 [8]
00000000: e09b 213e 3d31 c53d 57f0 c6bd f5fc b3bd
00000010: 43b4 c8bd 1703 26bc 8606 09bc 6973 0b3d
0.15782118 0.09628532 -0.0971381 -0.08788482 -0.09800007 -0.010132573 -0.008363372 0.03404561

disenlayers.0.conv_layers.0.weight f4 [8, 8]
00000000: 6e9a 0ebf c24c ef3c 29f3 30bf 3982 493f
00000010: c6c4 1740 e687 92bf 18be d1be b401 42bf
00000020: 225b 493f 3f62 75bf 6b95 9a3f 78c6 003f
00000030: 6403 f53e f1a7 8c3f 12c9 31bf 81d7 3ebf
00000040: be04 3e3f 4a9e 6e3e 0a14 e5bf 8f7f 1e3e
00000050: 0c54 f33f 113a 75bf 0144 c8bd a1ef b4bf
00000060: 72a4 a1bf 762a dabd aeac 603f b9e8 5f3f
00000070: 4baf c33f 4cc0 a7bd 0b82 8c3f f69b 933f
00000080: 7596 c7bf 6fa8 94be 9912 0fbf a546 e9bf
00000090: 4480 ba3f 7387 cabf 89d7 acbf f94e 063f
000000a0: fc4c 45be d967 abbf ed11 7dbe 8d83 20bf
000000b0: 0783 c43e 2c70 bb3f c986 103f 69f3 203e
000000c0: 7000 04c0 c2a1 ad3f 16d9 2540 d876 bbbc
000000d0: 5b75 383f df0c 90bf 84eb 7dbf 5cb4 c83f
000000e0: 5f47 9dbf fb72 c6bd 69ad cf3e e39d ee3e
000000f0: 0839 e33d 5136 553f d912 b9bf 8ad1 85bf
-0.5570439 0.029211406 -0.6912103 0.7871433 2.371385 -1.1447723 -0.40965343 -0.7578385
0.7865468 -0.95853037 1.2076849 0.5030284 0.4785415 1.0988752 -0.69447434 -0.7454758
0.74225986 0.2330257 -1.789674 0.15478347 1.9010024 -0.9579173 -0.09778596 -1.4135629
-1.262831 -0.1065263 0.8776349 0.8746448 1.528787 -0.081909746 1.0977186 1.153197
-1.5592791 -0.29034755 -0.5588775 -1.8224684 1.4570394 -1.5822586 -1.3503276 0.5246425
-0.19267648 -1.3391067 -0.2471387 -0.6270073 0.38381216 1.4643607 0.56455666 0.15717854
-2.0625267 1.356499 2.5913749 -0.022883818 0.7205407 -1.1253928 -0.99187493 1.5680041
-1.2287406 -0.096898995 0.4056199 0.46604833 0.11094862 0.83286005 -1.4458877 -1.0454571

disenlayers.0.conv_layers.1.weight f4 [8, 8]
00000000: 8be9 d4bf 0087 f6bf c4cb c13e a303 833f
00000010: fe8c d23e 51f1 81be 6231 20bf 09ad 7fbf
00000020: b35f 503f 4ea7 f43f f015 66be febf d4bf
00000030: e4e8 1fbf 97df 87be 9a4e 42be e950 4cbf
00000040: 3416 68bf 6917 ae3f a4d8 69bf a574 0cc0
00000050: d56d aebf cb71 e9be f909 8d3e 910c f7bf
00000060: ea51 2ebf 1b8f 913f c662 c9bb 36d7 52bd
00000070: e993 943d 8d11 96be 1933 3c3f a250 c7bf
00000080: 9387 4b3e 0137 cbbf 014f a0bf 4045 0040
00000090: 9e8a e83f fdc5 0e3f 1352 253f a6c4 9d3e
000000a0: a381 dcbd 7a8d 4c3e f284 d5be 9bd4 93bf
000000b0: 8d20 403f 6c0c dcbe 594e b4bf 0500 ee3f
000000c0: 7771 cebe 627b 2b3f c281 cebf 0a48 923e
000000d0: ee9f 73bf 986d ebbf b04b b53f 073b c9be
000000e0: 30d2 dfbe 2a35 2cbf 5d49 eebd 4f27 70bf
000000f0: 0b1c 5fbf 4321 aebf 96f0 8c3e f587 adba
-1.6633772 -1.9259949 0.37850773 1.0235485 0.41123194 -0.25379422 -0.6257535 -0.99873406
0.81396025 1.9113557 -0.22469306 -1.6621091 -0.6246474 -0.26537773 -0.18975297 -0.7981096
-0.9065888 1.3600894 -0.9134619 -2.1946194 -1.3627268 -0.4559463 0.2754667 -1.930071
-0.6809374 1.1371797 -0.006145808 -0.051474772 0.07254774 -0.29310265 0.7351547 -1.5571482
0.19875936 -1.5876161 -1.252411 2.0042267 1.8167303 0.55770856 0.6457836 0.30814093
-0.10766914 0.19975844 -0.41702992 -1.1549257 0.7504967 -0.42978227 -1.408641 1.8593756
-0.40320942 0.6698514 -1.6133349 0.28570586 -0.9516591 -1.839282 1.4163723 -0.39302847
-0.43715048 -0.6726862 -0.11635087 -0.9380998 -0.87152165 -1.3603901 0.27527303 -0.0013239371

disenlayers.0.bias_list.0 f4 [1, 8]
00000000: d5da c3be 55f1 81be 488d d6be b366 8bbf
00000010: 7e06 52bf eb8f a0bf 9b35 09c0 1f28 1abf
-0.38252893 -0.25379434 -0.41904664 -1.0890716 -0.82041156 -1.254392 -2.1438968 -0.6021747

disenlayers.0.bias_list.1 f4 [1, 8]
00000000: 4d35 95bf 93c6 273e cd6b 0b3f 5f65 0c40
00000010: 2bde 2b3e b32d 9c3f 0716 eabe 9629 0bc0
-1.1656891 0.16384344 0.54461366 2.1936872 0.16783969 1.2201446 -0.4571993 -2.1744132

weight f4 [1, 16]
00000000: 2ee9 db3e b458 8bbe 4721 833e 2a42 2a3f
00000010: 1fd5 7cbe a78a dabe 4f4f 1c3f e8aa b83e
00000020: b361 0ebf 1005 c63e c031 75be 08ae d63d
00000030: 2ba7 fd3d dd06 9f3e 100c 8f3e 7d8d 24bf
0.4295134 -0.27216113 0.25611326 0.6650721 -0.24690674 -0.42683908 0.61058515 0.3606789
-0.5561783 0.38675737 -0.2394476 0.104824126 0.123854004 0.31059924 0.2793889 -0.64278394

weight f4 [2, 8]
00000000: eced 12bf e18c fdbe 250b e6be 254a a9be
00000010: b2ab 17be a6d9 7dbd 451e aabe 48fd df3e
00000020: 8973 debe 9a3b fc3e c147 82be 6a7b 3dbe
00000030: 7b2d 00bf 5d25 8f3e 167d a03d f9fe 0e3f
-0.5739429 -0.49521545 -0.44930378 -0.3306438 -0.1481159 -0.061975144 -0.3322622 0.43747926
-0.4344752 0.49264222 -0.2544537 -0.1850411 -0.500694 0.27958193 0.07836358 0.5585781

bias f4 [2]
00000000: 53ab 2bbd 39ab 2b3d
-0.041911434 0.041911338
