Weights/model_weight.pt_pokec_z.pth (torch, 28821 bytes, 15 tensors)

assigner.layers.0.weight f4 [2, 554]
0	0x3e231437	0.1592568
1	0xbc6fd41c	-0.014637973
2	0xbe0083c1	-0.1255026
3	0x3dd3c996	0.10341184
4	0x3acb2b23	0.0015500527
5	0x3c9b2fc2	0.018943671
6	0xbe0666de	-0.13125178
7	0xbcf34e26	-0.02970035
8	0x3e5c63e7	0.21522485
9	0xbd8b665c	-0.06806633
10	0xbe57b33d	-0.21064468
11	0x3e76efe1	0.24114944
12	0xbda727d1	-0.08161891
13	0xbd53dea3	-0.051725995
14	0xbd61bcb8	-0.055111617
15	0xbc91f6e6	-0.017817926
16	0xbab69a75	-0.001393153
17	0x3d8a6141	0.06756831
18	0x3cdfb235	0.027306655
19	0xbc8c57df	-0.017131744
20	0xbe026009	-0.12731947
21	0xbc8a52f5	-0.01688526
22	0xbd4d7f68	-0.050170332
23	0x3e2acdd7	0.16680084
24	0x3cd6f6ac	0.02624067
25	0x3d121b9d	0.035670865
26	0x3d8b78ad	0.068101265
27	0xbd2f19c1	-0.04274917
28	0xbd00971f	-0.03139412
29	0x3e3aeede	0.18255183
30	0x3d0d9c83	0.03457309
31	0x3e2feb73	0.1717966
32	0xbd0f3e72	-0.034971662
33	0x3e1f2e7e	0.15545079
34	0xbd7f4ed4	-0.062331036
35	0xba2f3c91	-0.00066847453
36	0x3bbdd614	0.0057933424
37	0x3c288990	0.010286704
38	0xbd8be72b	-0.06831201
39	0xbca29bdb	-0.019849708
40	0xbe1dcc36	-0.15409932
41	0x3d0c0ee3	0.034193885
42	0x3e397455	0.18110783
43	0x3e21bee3	0.15795474
44	0x3cb24777	0.021762593
45	0x3e70b7ad	0.23507567
46	0x3b356b4f	0.002768237
47	0xbca961ef	-0.020676581
48	0x3dff2677	0.124585085
49	0x3df9b1d5	0.12192122
50	0xbd8dde09	-0.069271155
51	0xbe69cadc	-0.22831291
52	0xbe37bbda	-0.17942753
53	0xbe899de3	-0.2687827
54	0x3c8332f8	0.016015515
55	0xbdf79d86	-0.12090592
56	0xbd2566ae	-0.040381126
57	0x3e9e6cbc	0.30942333
58	0xbdb26442	-0.08710529
59	0x3b9ddf97	0.0048179138
60	0xbcf2943e	-0.029611703
61	0xbdde7766	-0.10862617
62	0xbdb19ead	-0.08672843
63	0xbd2d1c86	-0.04226353
64	0x3d57d3a7	0.05269208
65	0xbd8fc0a1	-0.07019163
66	0x3d5faf14	0.054610327
67	0x3e7d86be	0.24758431
68	0x3deedb72	0.116629496
69	0x3dd6dc43	0.1049123
70	0x3db23d42	0.0870309
71	0xbc90d961	-0.01768178
72	0xbd3be104	-0.04586889
73	0xbda82d00	-0.08211708
74	0xbe006983	-0.1254025
75	0x3e154eaa	0.14580789
76	0x3ba066df	0.0048950757
77	0xbcc34a7b	-0.023839226
78	0x3de9e90d	0.11421404
79	0xbdd50c08	-0.104026854
80	0x3d843399	0.06455154
81	0xbd33fa9e	-0.04394018
82	0x3e1eabec	0.1549527
83	0xbdc9bcea	-0.098504856
84	0xbd94b274	-0.072606
85	0x3dd67ee2	0.1047342
86	0xbe7eeaf6	-0.24894318
87	0x3e7d90bb	0.24762242
88	0x3e8c9dac	0.27464044
89	0xbcd1cba2	-0.025609795
90	0xbc469160	-0.012119621
91	0xbdbf639b	-0.0934517
92	0x3ddb1fb6	0.10699408
93	0xbc5281db	-0.012848343
94	0xbacfba23	-0.001584832
95	0x3df7141e	0.12064384
96	0x3e2709fd	0.16312404
97	0x3cf4c047	0.029876841
98	0x3d4a5d19	0.04940519
99	0xbc975963	-0.01847524
100	0x3da80238	0.08203548
101	0xbd1b1b36	-0.037867747
102	0x3e745a1d	0.238625
103	0x3d9541e8	0.07287961
104	0xbe1a6d4d	-0.15080757
105	0x3c9a6a3d	0.018849486
106	0xbcf779a4	-0.03020937
107	0x3def1d6e	0.11675535
108	0x3e33a593	0.1754363
109	0x3d720f66	0.059096716
110	0xbdbbb6e9	-0.09165747
111	0xbd8aeb5a	-0.06783171
112	0x3b9f2205	0.0048563504
113	0xbdc15f47	-0.09442001
114	0xbdd07b6c	-0.10179791
115	0xbeb14b1b	-0.34627613
116	0x3e1f61b4	0.15564615
117	0x3bc9f53a	0.0061632665
118	0xbdeb7756	-0.11497371
119	0xbdb2c167	-0.08728295
120	0xbd5972a6	-0.053087853
121	0x3d88df47	0.06683212
122	0xbd86f76a	-0.06590159
123	0xbd64da37	-0.05587217
124	0x3d80550b	0.06266221
125	0x3d869f2b	0.06573328
126	0xbdf8be5e	-0.12145685
127	0x3e4d693f	0.2005968
128	0xbc999b11	-0.0187507
129	0xbdb54a0e	-0.088520154
130	0xbdf4a8c9	-0.11946256
131	0x3d02d228	0.031938702
132	0x3ca8f04b	0.020622393
133	0x3c61104a	0.013736794
134	0xbdb70398	-0.08936232
135	0xbdbfe62a	-0.09370072
136	0xbdeb89ee	-0.115009174
137	0x3d0c51c5	0.03425767
138	0xbe0dab82	-0.13834956
139	0xbdba3f8d	-0.090941526
140	0xbe8c2bc7	-0.2737715
141	0xbdfcfdeb	-0.123531185
142	0x3e98671e	0.29766172
143	0xbd991805	-0.074752845
144	0xbdd90759	-0.105971046
145	0x3e7e0238	0.24805534
146	0x3cef2aec	0.029195271
147	0x3e62b593	0.22139578
148	0xbdddc1f7	-0.108280115
149	0x3cf702c8	0.030152693
150	0x3daa3acd	0.083119966
151	0x3dd821db	0.105533324
152	0xbda556d4	-0.08073202
153	0x3d8a5516	0.0675451
154	0x3a3aa93c	0.0007120555
155	0xbdc51c82	-0.09624578
156	0xbd016298	-0.031588167
157	0xbc13d555	-0.00902303
158	0xbe239349	-0.15974154
159	0x3d600876	0.05469557
160	0xbe315052	-0.17315796
161	0xbd799dfc	-0.06094168
162	0xbb22963d	-0.0024808787
163	0xbce6b80f	-0.028163938
164	0xbd8d24ce	-0.068917856
165	0x3e93a488	0.28836465
166	0xbe25a13a	-0.16174784
167	0x3d91ac77	0.07112973
168	0x3e06c077	0.13159357
169	0x3e633dc4	0.2219153
170	0x3e833f16	0.25634068
171	0xbb864dba	-0.004098621
172	0x3c9503b2	0.018190239
173	0xbd9aca8e	-0.075581655
174	0x3cb5610d	0.022141004
175	0xbd3403ad	-0.043948818
176	0x3d6d85c0	0.057988882
177	0x3d044713	0.032294344
178	0xbd930b43	-0.071798824
179	0xbdcd6bf8	-0.10030359
180	0x3d352c20	0.044231534
181	0xbe13d5ac	-0.14436978
182	0xbd758cfd	-0.05994891
183	0xbe33d4ac	-0.17561597
184	0xbb6387ca	-0.0034718388
185	0xbd4b157c	-0.049581036
186	0xbdb518b2	-0.08842601
187	0xbe1f8bd2	-0.15580681
188	0x3d0dcc39	0.03461859
189	0x3d599005	0.053115863
190	0x3dac2241	0.08404971
191	0x3e133e08	0.14379132
192	0x3d561e28	0.052274853
193	0x3c2906fc	0.010316607
194	0xbd0b0d73	-0.033948373
195	0xbd45f803	-0.048332226
196	0xbdf7734d	-0.12082539
197	0xbcf85508	-0.030313984
198	0xbc0fd70f	-0.008779301
199	0xbdfd0b14	-0.123556286
200	0xbdd4d088	-0.10391337
201	0x3db202bf	0.0869193
202	0x3d0f9459	0.035053585
203	0xbd3cb9a1	-0.046075467
204	0x3dbd291f	0.09236359
205	0x3c9758b1	0.018474909
206	0xbe6bf8c1	-0.23044111
207	0x3d46f9f7	0.04857823
208	0x3e70aad1	0.23502661
209	0x3bdc4aa1	0.0067227636
210	0x3c20d55e	0.009816496
211	0xbd9f4e4a	-0.07778604
212	0xbd2f4e20	-0.042799115
213	0xbdd8ef26	-0.10592489
214	0xbd2b0e26	-0.04176154
215	0xbd67a672	-0.05655522
216	0x3da97725	0.08274678
217	0x3e9b786b	0.3036531
218	0x3e788c7b	0.24272339
219	0xbe09ba11	-0.13449885
220	0xbd95c166	-0.073122784
221	0x3c4eeebe	0.012630163
222	0xbbd62ca7	-0.0065360847
223	0x3d83e1c1	0.064395435
224	0x3e3094fa	0.1724433
225	0x3e4df2e9	0.20112194
226	0x3df94e69	0.12173159
227	0x3eb05e6f	0.34447047
228	0x3e822b0a	0.2542346
229	0xbdfc9a17	-0.12334078
230	0x3e323f3b	0.17406933
231	0x3d12ffd1	0.035888497
232	0x3d9c8b27	0.07643729
233	0xbd7ff522	-0.062489636
234	0x3ddbc43d	0.10730789
235	0xbd07781a	-0.033073522
236	0xbdb06d12	-0.086145535
237	0xbd09239c	-0.033481225
238	0x3e82cc1c	0.25546348
239	0x3e59e994	0.21280509
240	0xbd946493	-0.072457455
241	0x3d8b3671	0.06797493
242	0x3e4cbf85	0.19994934
243	0xbe13b1a8	-0.14423239
244	0xbdddb27a	-0.10825057
245	0xbd956764	-0.07295111
246	0x3c8acf5c	0.01694458
247	0x3dc69160	0.09695697
248	0xbe25aa14	-0.16178161
249	0xbdc32fcc	-0.09530601
250	0x3e887a51	0.2665582
251	0x3e7fc923	0.24979071
252	0x3decbf28	0.11559898
253	0x3d0736cd	0.033011246
254	0x3d361105	0.044449825
255	0xbe401159	-0.18756618

assigner.layers.0.bias f4 [2]
0	0x3d876474	0.06610957
1	0x3d88592f	0.066576354

assigner.layers.1.weight f4 [2, 2]
0	0x3d85ba15	0.06529633
1	0x3e71c122	0.2360883
2	0xbf993045	-1.1967856
3	0xbf1c5611	-0.61068827

assigner.layers.1.bias f4 [2]
0	0x3d8256ce	0.06364213
1	0xbd8256cd	-0.06364212

disenlayers.0.lin_layers.0.weight f4 [8, 277]
0	0xbc2e672a	-0.010644713
1	0xbc852c85	-0.01625658
2	0xbd6c9bb1	-0.057765666
3	0x3d7aae44	0.06120135
4	0x3c7385a8	0.014863409
5	0xbd0dcef4	-0.034621194
6	0x3da65633	0.0812191
7	0x3dc85115	0.0978109
8	0x3bbbbaba	0.0057290467
9	0x3d989224	0.07449749
10	0x3dffb7e3	0.124862455
11	0xbe20bd5e	-0.15697238
12	0xbb8c16d4	-0.0042751823
13	0x3e0eb0c1	0.13934614
14	0xbe4daaa9	-0.20084633
15	0xbd981eea	-0.074277714
16	0x3cc11cfa	0.023573387
17	0x3e53bf7b	0.20678513
18	0xbd2bdedd	-0.041960586
19	0x3e46df33	0.19421081
20	0x3e54c89f	0.20779656
21	0x3e16a3f9	0.14710988
22	0xbe83319d	-0.2562379
23	0xbd0f81ab	-0.03503577
24	0x3dc1dfa1	0.09466482
25	0xbdad9ca5	-0.08477143
26	0x3da9d3d9	0.0829236
27	0xbd971faa	-0.07379086
28	0x3e28c955	0.16483052
29	0xbd6b9294	-0.057512835
30	0xbdf47fbe	-0.119384274
31	0xbe6f4a9f	-0.2336831
32	0xbd15ed84	-0.036603466
33	0xbe3782a4	-0.17920929
34	0x3dd75470	0.10514152
35	0x3e20cc7c	0.15703005
36	0xbd9b6bc5	-0.07588915
37	0x3d1f4001	0.0388794
38	0x3c31edc0	0.010859907
39	0xbde6da6f	-0.11272132
40	0xbe47a2c9	-0.19495691
41	0xbd9350e0	-0.0719316
42	0xbe259af1	-0.16172387
43	0x3e08cfb6	0.13360485
44	0xbd4b435c	-0.049624786
45	0xbd827785	-0.06370453
46	0xbd02c822	-0.031929143
47	0x3c93720f	0.017998723
48	0xbdef7f21	-0.1169417
49	0xbd377c7b	-0.04479645
50	0xbd530490	-0.051518023
51	0xbe2d479e	-0.16921851
52	0x3e0a8dbe	0.13530633
53	0xbd8cfba1	-0.06883932
54	0x3b77fece	0.0037841084
55	0xbd6c4f76	-0.057692967
56	0xbd6b0abf	-0.057383295
57	0xbe3874c8	-0.18013299
58	0x3e4e31f2	0.2013624
59	0xbe58caa1	-0.21171047
60	0xbe7b5875	-0.24545462
61	0xbe262f3e	-0.16228959
62	0xbd964b9d	-0.07338641
63	0xbdf47991	-0.119372495
64	0xbe37de98	-0.17956007
65	0x3e1c3556	0.15254721
66	0xbd2bc056	-0.041931473
67	0xbcccd8b4	-0.025005676
68	0xbe27808b	-0.16357629
69	0xbda4601f	-0.08026146
70	0x3c9f9ff5	0.019485453
71	0x3c2c058c	0.010499369
72	0xbd8e4c35	-0.06948129
73	0x3ca33ce9	0.019926505
74	0xbe0669df	-0.13126324
75	0xbd192e42	-0.03739763
76	0xbdc28271	-0.09497536
77	0x3d705ac9	0.05868033
78	0xbd4cbacb	-0.049982827
79	0x3da85577	0.08219426
80	0x3e5a4652	0.21315888
81	0xbdc03fd1	-0.09387172
82	0xbd3106a1	-0.043219212
83	0xbe3d22a3	-0.18470244
84	0x3da35448	0.0797506
85	0xbe2d4a83	-0.16922955
86	0x3e651174	0.22369939
87	0xbe321255	-0.17389806
88	0xbdc0fbf1	-0.09423054
89	0x3d116761	0.03549898
90	0x3d32dcdf	0.04366767
91	0xbdac860e	-0.084240064
92	0xbc182ae9	-0.009287574
93	0xbd684ea0	-0.056715608
94	0x3deef457	0.11667698
95	0xba0e9699	-0.0005439311
96	0xbca9d60c	-0.020731948
97	0xbdf76364	-0.12079504
98	0x3d247372	0.04014916
99	0xbe06ab4b	-0.1315128
100	0xbda11100	-0.078645706
101	0x3d6cf64d	0.05785208
102	0xbe360891	-0.17776705
103	0xbdb2ef78	-0.08737081
104	0xbe23190a	-0.1592752
105	0x3c02ee3c	0.00799137
106	0xbdcf52b5	-0.10123197
107	0x3d462968	0.04837933
108	0xbe81e651	-0.2537103
109	0x3cd1295e	0.02553242
110	0x3d819e9d	0.06329081
111	0xbb8a5789	-0.004221861
112	0xbd4d1e29	-0.05007759
113	0xbdcd087e	-0.100113854
114	0xbc2d920f	-0.010593905
115	0x3e39eed4	0.18157512
116	0xbd1c0c47	-0.038097646
117	0x3cd7695c	0.026295356
118	0x3e4c9fe6	0.19982871
119	0xbd861856	-0.065476105
120	0xbc4627b8	-0.012094431
121	0xbd0882db	-0.03332792
122	0xbe28abce	-0.16471788
123	0xbdaf5878	-0.08561796
124	0x3df20827	0.11817961
125	0xbd9d6ee5	-0.07687167
126	0xbd524f89	-0.051345382
127	0xbccd368d	-0.025050426
128	0xbe2a6edc	-0.16643852
129	0x3d343285	0.04399349
130	0xbdd0b72c	-0.10191187
131	0x3dfb9d36	0.12285845
132	0x3bba6ac4	0.005688997
133	0xbd4bb62d	-0.049734283
134	0x3c53da52	0.01293047
135	0x3d9793f0	0.07401264
136	0x3da13897	0.07872122
137	0xbd0ebbef	-0.034847196
138	0xbe4e6091	-0.20154025
139	0x3d3701c7	0.04467943
140	0x3ca232a5	0.01979954
141	0x3e604cea	0.2190434
142	0x3d09a3bc	0.033603415
143	0xbe1c8fc9	-0.15289225
144	0x3d9fb1aa	0.077975586
145	0x3dbcd9a7	0.092212014
146	0xbe896488	-0.26834512
147	0xbe74afde	-0.23895213
148	0x3e2d2551	0.16908766
149	0xbe1069d5	-0.14102872
150	0xbc931e34	-0.017958738
151	0x3d4489e6	0.047983073
152	0x3e034c70	0.12822127
153	0x3d143639	0.036184523
154	0xbbbc4333	-0.0057453155
155	0x3defa2d0	0.11700976
156	0xbe1dcbe0	-0.15409803
157	0x3db996c3	0.09061959
158	0x3e5fa01c	0.2183842
159	0xbd6e31ac	-0.05815284
160	0x3de1ba94	0.11021915
161	0xbd8e686e	-0.06953512
162	0xbe00da0a	-0.12583175
163	0xbe1a770e	-0.15084478
164	0xbdd0543d	-0.10172317
165	0x3df86730	0.121290565
166	0x3e8c8c79	0.27450922
167	0x3d03315d	0.0320295
168	0x3cc191d7	0.023629112
169	0xbdeed849	-0.11662347
170	0x3e0ed325	0.13947733
171	0xbe38a94d	-0.18033333
172	0xbafa6016	-0.0019102122
173	0x3dc2d7d6	0.09513824
174	0x3db7bf26	0.089720055
175	0xbd788bfa	-0.060680367
176	0xbe14b29f	-0.14521264
177	0xbe0b097f	-0.13577841
178	0x3dbfc5dd	0.09363911
179	0x3deba485	0.11505989
180	0x3c1e39e3	0.009657356
181	0x3d95a536	0.07306902
182	0x3d8f916d	0.0701016
183	0x3ce141de	0.027497228
184	0xbe031487	-0.128008
185	0xbb4e9d95	-0.0031527032
186	0x3e2f4968	0.17117846
187	0xbca47e69	-0.020079808
188	0x3e370c9d	0.17875905
189	0x3cc27b77	0.023740513
190	0xbe0ec6f3	-0.1394308
191	0xbd7d724e	-0.061876588
192	0x3e2b54dc	0.1673159
193	0xbbbc23c3	-0.005741568
194	0x3d524f4e	0.051345162
195	0x3e2b55e1	0.16731979
196	0xbe2b0dee	-0.16704533
197	0xbddf388c	-0.10899457
198	0xbd713bdf	-0.05889499
199	0xbbed83eb	-0.007248392
200	0x3e046d5b	0.12932341
201	0x3e2dc361	0.16969062
202	0xbba3f83b	-0.0050039566
203	0xbe4dd4db	-0.20100729
204	0xbdac3a46	-0.08409552
205	0xbda053c8	-0.0782848
206	0x3cf6011d	0.030029828
207	0xbe3a4c93	-0.18193273
208	0xbd037dbc	-0.03210233
209	0x3d22af84	0.039718166
210	0x3d9aab6d	0.07552228
211	0xbd02a14b	-0.031892102
212	0xbceb3932	-0.028713796
213	0x3d58b341	0.052905325
214	0x3da99a99	0.0828144
215	0x3e80e30c	0.25173223
216	0x3d0bb3da	0.034107067
217	0xbe51ac42	-0.20475867
218	0xbddb50c9	-0.10708768
219	0x3e20f614	0.15718871
220	0xbcc528e6	-0.024067353
221	0xbcd4a00f	-0.025955228
222	0x3d9d7bcc	0.07689628
223	0x3d031698	0.03200397
224	0xbe0cd4b1	-0.1375301
225	0x3cec8df2	0.028876279
226	0xbd7b62db	-0.061373573
227	0xbd7cbf9c	-0.06170617
228	0xbe20440f	-0.15650962
229	0x3e067841	0.1313181
230	0x3d8c9e72	0.068661585
231	0x3dccd369	0.10001261
232	0xbe071912	-0.13193157
233	0x3e2f85da	0.17140904
234	0x3db9a5f4	0.09064856
235	0x3d0d82c7	0.034548547
236	0xbd7e2912	-0.062050886
237	0xbd1606c3	-0.036627542
238	0x3bdfce40	0.006830007
239	0xbe0f6e35	-0.14006884
240	0x3d0c496f	0.03424972
241	0x3c464676	0.01210176
242	0x3dea297f	0.11433696
243	0xbd467e5f	-0.04846036
244	0x3d356ac1	0.04429126
245	0x3e4aee0b	0.19817369
246	0x3e9200e4	0.28516304
247	0xbe40e184	-0.18836027
248	0x3e8b78cb	0.27240595
249	0x3d679dab	0.05654685
250	0xbd86b5b8	-0.06577629
251	0xbd8c78bc	-0.06858966
252	0xbd690e0f	-0.056898173
253	0x3e15cddf	0.14629315
254	0xbd69d351	-0.057086293
255	0x3e0bbc89	0.13646139

disenlayers.0.lin_layers.0.bias f4 [8]
0	0xbd5a8d7b	-0.053357583
1	0xbd6e7c61	-0.058224086
2	0x3d8c9533	0.06864395
3	0xbd9958d6	-0.07487647
4	0xbd2d5042	-0.042312868
5	0x3d8a48e2	0.067521825
6	0xbc1c417d	-0.009537098
7	0x3ca0d8e8	0.019634679

disenlayers.0.lin_layers.1.weight f4 [8, 277]
0	0x3cf0495d	0.029331857
1	0x3d959013	0.073028706
2	0x3d6bd0d1	0.05757219
3	0x3dbdae75	0.09261791
4	0x3d45d1a0	0.048295617
5	0xbd4354fa	-0.04768846
6	0x3ddb852c	0.1071876
7	0xbd7409ca	-0.059579648
8	0x3d667572	0.05626435
9	0xbd8af2e1	-0.06784607
10	0xbdece5b3	-0.11567249
11	0x3df9cbfb	0.12197109
12	0x3db38b56	0.087668106
13	0x3d9beb70	0.076132655
14	0xba825b68	-0.0009945454
15	0xbd9acf3f	-0.0755906
16	0x3e18975e	0.14901492
17	0xbd484ab6	-0.048899375
18	0xbcc18e45	-0.02362741
19	0xbcfd365b	-0.030909708
20	0xbd80ba22	-0.06285502
21	0x3d49cd83	0.049268257
22	0x3e3c02af	0.18360399
23	0x3e10f07a	0.14154235
24	0xbdd4de8b	-0.10394009
25	0x3e35ff21	0.17773105
26	0x3d99777f	0.07493495
27	0xbd95b55e	-0.07309984
28	0x3d636109	0.05551246
29	0x3e0a5b37	0.13511358
30	0x3e37dae3	0.17954592
31	0x3dabaa8e	0.0838214
32	0xbd857fb3	-0.06518497
33	0x3e40ae3a	0.18816462
34	0x3e33aadc	0.17545646
35	0x3e103523	0.1408277
36	0x3c712d80	0.014720321
37	0x3e1214f6	0.14265808
38	0x3da69dc1	0.08135558
39	0xbb84aecf	-0.004049159
40	0x3da92bd2	0.08260311
41	0x3d466d39	0.048444007
42	0xbcf66948	-0.030079499
43	0x3e1fd995	0.15610345
44	0xbd0cf685	-0.034414787
45	0x3e2a44d9	0.16627826
46	0x3cccace5	0.024984786
47	0x3e22ef25	0.15911539
48	0x3d219805	0.039451618
49	0x3e42834d	0.189954
50	0xbde14cba	-0.110009626
51	0x3d030271	0.03198475
52	0xbd9f5441	-0.07779742
53	0x3dd8d47c	0.10587403
54	0xbdc044c5	-0.09388117
55	0x3c0c9253	0.008579808
56	0x3d2548b5	0.040352542
57	0xbb343ed2	-0.0027503264
58	0x3e02aa1c	0.12760204
59	0x3e3fcda2	0.18730786
60	0x3d60f75f	0.05492341
61	0x3de6f02a	0.112762764
62	0xbd416dfe	-0.047224037
63	0x3e2d2752	0.16909531
64	0xbbdcd765	-0.006739544
65	0xbcd39d88	-0.025831953
66	0xbdb991e7	-0.09061032
67	0x3e273792	0.16329792
68	0x3d835dbd	0.064143635
69	0x3e0bf145	0.13666256
70	0x3e064a91	0.13114382
71	0x3dbb10df	0.09134077
72	0xbdd5ad34	-0.104334265
73	0xbdad6602	-0.08466722
74	0x3d29a923	0.041421067
75	0x3cc557cb	0.024089715
76	0xbd8f582e	-0.06999241
77	0x3e1ab213	0.15106992
78	0x3e200aaf	0.15629075
79	0x3d407d75	0.046994645
80	0xbd208226	-0.03918662
81	0x3def1fb9	0.116759725
82	0xbd5bf777	-0.053702798
83	0xbd5f6b83	-0.05454589
84	0x3e495984	0.19663054
85	0xbd590c5b	-0.0529903
86	0xbd6f69e0	-0.05845058
87	0x3e474b02	0.19462207
88	0x3d9c3c72	0.076287165
89	0x3e15d779	0.14632978
90	0x3e535383	0.20637326
91	0x3bb86dd0	0.005628325
92	0x3e46a653	0.19399385
93	0x3d42afd1	0.047530953
94	0xbc379159	-0.011204087
95	0x3dafca09	0.08583457
96	0xbd9c78b1	-0.076402076
97	0x3d5fca74	0.054636434
98	0x3e161a3b	0.14658444
99	0xba9a3009	-0.0011763583
100	0xbd9de446	-0.07709555
101	0x3dbbbfa5	0.09167413
102	0x3cf12cd7	0.029440327
103	0xbd441f42	-0.047881372
104	0x3d884e70	0.06655586
105	0x3cf7b564	0.030237861
106	0xbd10288e	-0.035194926
107	0xbda70a09	-0.08156211
108	0x3d55d04b	0.052200597
109	0x3ded0eaf	0.11575066
110	0x3db7c230	0.08972585
111	0x3e2f1030	0.17096019
112	0x3dfbd8aa	0.12297185
113	0x3ba100d4	0.004913429
114	0x3cee6527	0.029100968
115	0xbd607df6	-0.054807626
116	0xbd729327	-0.059222367
117	0x3d459b5b	0.04824386
118	0xbc9b14fe	-0.018930908
119	0xbcda957d	-0.02668261
120	0x3d488701	0.048956875
121	0x3e15e041	0.14636327
122	0xbd43491e	-0.04767715
123	0xbe059b65	-0.1304756
124	0x3e0a692b	0.13516681
125	0x3cae97dc	0.021312647
126	0xbd3ca264	-0.046053305
127	0x3d74299c	0.059609994
128	0x3dbd7cb2	0.09252299
129	0xbde55ac8	-0.11198956
130	0xbd1c4f6f	-0.03816169
131	0xbdd8b10e	-0.105806455
132	0xbd75a16a	-0.05996839
133	0x3e1c9a33	0.15293197
134	0xbc91ba66	-0.017789077
135	0xbd79ad96	-0.06095656
136	0xbca1b8a0	-0.019741356
137	0x3d5c67da	0.053809978
138	0xbdca9078	-0.098908365
139	0x3dae4241	0.08508731
140	0xbd102f14	-0.035201147
141	0x3d0a51d5	0.033769447
142	0x3e6ef4a8	0.23335516
143	0x3e23c45a	0.15992871
144	0xbd803e53	-0.062618874
145	0x3e2e7de4	0.17040211
146	0x3e0e6cee	0.13908741
147	0xbd86d089	-0.06582744
148	0xbce11e4b	-0.027480265
149	0x3d3102a1	0.043215398
150	0x3ac132cf	0.0014739874
151	0x3cb79bc6	0.022413146
152	0x3e12a0d2	0.1431916
153	0x3d8a0053	0.06738343
154	0xbc8b5cef	-0.017012088
155	0x3de0764a	0.10960062
156	0x3e09664a	0.13417926
157	0x3e0cdbfd	0.13755794
158	0x3d0af4fa	0.033925034
159	0x3dfc1820	0.12309289
160	0x3dc9afa6	0.098479554
161	0x3e13d068	0.1443497
162	0x3e0f2cb3	0.13981895
163	0xbdc06a65	-0.09395293
164	0xbcb6f085	-0.022331486
165	0x3cc29b0c	0.023755573
166	0x3d7cfb24	0.061762944
167	0xbceccb6e	-0.028905597
168	0x3e3743e9	0.17897
169	0x3d7cf1ca	0.061754026
170	0xbc84b97b	-0.016201725
171	0x3e3e145d	0.18562455
172	0x3e49dabe	0.1971235
173	0x3dc4d2ca	0.09610517
174	0x3dd4604d	0.103699304
175	0x3e056f42	0.13030723
176	0x3e0211a4	0.12702042
177	0x3d77007c	0.060303196
178	0x3d145902	0.036217697
179	0xbdc5a211	-0.09650052
180	0x3e026ad4	0.12736064
181	0x3df550cd	0.11978302
182	0xbd074265	-0.033022303
183	0xbd2ec675	-0.042669732
184	0xbdbd7caa	-0.092522934
185	0x3e1bddd9	0.15221347
186	0x3d2ea122	0.042634137
187	0xbae5efd5	-0.0017542789
188	0x3baf2aef	0.0053456943
189	0x3e2a744c	0.16645926
190	0x3c32fc3a	0.010924393
191	0xbd4322f5	-0.04764076
192	0x3b8f63d8	0.004375916
193	0x3d8c5896	0.06852834
194	0xbd31b678	-0.043386906
195	0x3d452bd7	0.048137512
196	0x3d6f5000	0.058425903
197	0xbd885f58	-0.066588104
198	0x3dbe5bcd	0.09294853
199	0x3dd46747	0.10371261
200	0x3e094e9e	0.13408896
201	0x3d3fa34f	0.046786603
202	0xbc301d32	-0.010749148
203	0xbd00e09a	-0.031464197
204	0x3d7b1945	0.061303396
205	0x3e4df535	0.2011307
206	0x3dd1d2ab	0.1024526
207	0x3e2fa83f	0.17154025
208	0x3d36fceb	0.044674795
209	0xbd859d2f	-0.06524121
210	0x3cccab93	0.024984157
211	0x3e181b7d	0.14854236
212	0xbca1b249	-0.019738333
213	0x3d9194f3	0.07108488
214	0x3c523255	0.012829383
215	0x3dcd7ea8	0.100339234
216	0xbdca823e	-0.09888123
217	0x3caf2d78	0.021383986
218	0x3e240f06	0.16021356
219	0x3ce01848	0.027355328
220	0x3dcacd44	0.099024326
221	0x3d969ecd	0.073545076
222	0x3dbbd2f5	0.09171096
223	0x3da1aaa6	0.07893877
224	0x3df11f3a	0.11773534
225	0x3d7e0277	0.06201407
226	0x3bbc68cc	0.0057497974
227	0xbc1a7e94	-0.009429593
228	0x3e33e98a	0.17569557
229	0xbdfd2a3f	-0.123615734
230	0x3d93e330	0.07221067
231	0x3ce02ec2	0.027366046
232	0x3aabab41	0.0013097302
233	0x3e031ef1	0.12804772
234	0x3c6ba43e	0.01438242
235	0x3d4f5b3c	0.050624117
236	0x3c0f1aa9	0.008734384
237	0xbd65e7be	-0.05612921
238	0x3d86b71f	0.06577896
239	0x3dbfcf05	0.09365658
240	0xbd973569	-0.07383234
241	0xbcd3bc67	-0.025846673
242	0x3d7b587c	0.061363682
243	0xbd8eb61d	-0.06968329
244	0xbddcfede	-0.107907996
245	0x3de0ced1	0.10976947
246	0x3d8d773c	0.06907508
247	0x3d6d46b7	0.057928767
248	0xbda2bc9a	-0.07946129
249	0x3e154324	0.14576393
250	0x3da9947d	0.08280275
251	0x3cb7a611	0.022418054
252	0xbd82f498	-0.06394309
253	0x3dc1c6d4	0.094617516
254	0xbd8142a2	-0.06311537
255	0xbdca00e2	-0.0986345

disenlayers.0.lin_layers.1.bias f4 [8]
0	0x3db9b26d	0.09067235
1	0xbd2b7b24	-0.041865483
2	0xbd6f751c	-0.058461294
3	0xbd771cd4	-0.060330227
4	0xbd683f6f	-0.05670112
5	0xbd9219d2	-0.07133831
6	0x3c8c094f	0.017094282
7	0x3d6fb5ca	0.058522977

disenlayers.0.conv_layers.0.weight f4 [8, 8]
0	0xbe266aab	-0.16251628
1	0xbe4035fd	-0.18770595
2	0xbf5b62f7	-0.85697883
3	0x3f5c9930	0.86171246
4	0x40073d57	2.113119
5	0xbf67e450	-0.9058275
6	0xbf09c749	-0.5381971
7	0xbf176aff	-0.5914764
8	0x3f2b412c	0.6689632
9	0xbf4c4f7f	-0.798088
10	0x3f9e37f4	1.2360826
11	0x3ed51daa	0.41624194
12	0x3f599837	0.84997886
13	0x3f461e1b	0.7738969
14	0xbee9410f	-0.45557448
15	0xbf60b4ae	-0.87775695
16	0x3f6440cb	0.89161366
17	0x3d81b395	0.06333081
18	0xbfe8792e	-1.8161981
19	0x3ddb9ec8	0.107236445
20	0x3fc97afd	1.5740658
21	0xbf3727e3	-0.7154524
22	0xbdbfe1f4	-0.09369269
23	0xbfc92a0c	-1.5715957
24	0xbf8fc3af	-1.1231593
25	0xbe6ebd56	-0.23314413
26	0x3f5a8f38	0.85374784
27	0x3f8a0f4d	1.078592
28	0x3f8e70b6	1.1128147
29	0x3e8c3830	0.27386618
30	0x3f66ce2c	0.90158343
31	0x3fa3e574	1.2804399
32	0xbfeb5037	-1.8383855
33	0xbebacfa3	-0.3648654
34	0xbed4f9c1	-0.41596797
35	0xc004fd16	-2.0779471
36	0x3fdc197b	1.7195276
37	0xbfea5460	-1.8306999
38	0xbf96f1a7	-1.1792496
39	0x3ec4ba21	0.38423255
40	0xbecf2ba0	-0.4046297
41	0xbfae1153	-1.3599037
42	0xbe805ff8	-0.25073218
43	0xbf453313	-0.7703106
44	0x3f503427	0.8132958
45	0x3f87ab42	1.0599139
46	0x3f46eaea	0.777022
47	0xbdb17c2c	-0.08666262
48	0xbff0a36a	-1.879987
49	0x3fa30c4e	1.273813
50	0x401da052	2.4629102
51	0x3d856d18	0.065149486
52	0x3f013a55	0.5047963
53	0xbf86ea99	-1.0540344
54	0xbf89e640	-1.0773392
55	0x3fc1c858	1.5139265
56	0xbf931945	-1.1492087
57	0xbe43a5fe	-0.1910629
58	0x3e8e4569	0.2778733
59	0x3f26f872	0.6522285
60	0xbe69c005	-0.22827156
61	0x3f89cfd2	1.0766547
62	0xbfd22b63	-1.641949
63	0xbf6b33fc	-0.91876197

disenlayers.0.conv_layers.1.weight f4 [8, 8]
0	0xbfae223c	-1.3604198
1	0xbfe9bf06	-1.8261421
2	0x3e73ff70	0.2382791
3	0x3f9eb968	1.2400331
4	0x3f1e2b5f	0.6178493
5	0xbebb35c3	-0.36564454
6	0xbf2b3ce3	-0.6688978
7	0xbf423767	-0.7586579
8	0x3f30b5e5	0.6902755
9	0x3ff425ab	1.9073995
10	0xbea4e5b2	-0.32206494
11	0xbfe7be7f	-1.810501
12	0xbf403073	-0.7507393
13	0xbe71be90	-0.2360785
14	0xbeae8c1f	-0.3409128
15	0xbf8597f9	-1.0437003
16	0xbf1111bf	-0.56667703
17	0x3fa1ffce	1.265619
18	0xbf63f726	-0.89048994
19	0xc0004190	-2.0040016
20	0xbf89ab64	-1.0755429
21	0xbf2c3085	-0.67261535
22	0x3f120987	0.5704579
23	0xbfe3cde1	-1.7797204
24	0xbf313b72	-0.6923133
25	0x3f9bd678	1.2174826
26	0xbdb8c4da	-0.090219215
27	0xbe3b9fef	-0.18322729
28	0x3d667e9d	0.05627309
29	0xbe88c98f	-0.26716277
30	0x3f4a7087	0.79077953
31	0xbfc26c4c	-1.51893
32	0x3e2b25a9	0.16713585
33	0xbfd8f2e8	-1.6949129
34	0xbfa2c269	-1.2715579
35	0x400001e7	2.000116
36	0x40044448	2.0666676
37	0x3ee306e1	0.44341186
38	0x3f185f88	0.5952077
39	0xbd30d9ac	-0.043176338
40	0xbef5e401	-0.48025516
41	0x3e722077	0.23645197
42	0xbf1d7623	-0.6150839
43	0xbfc4badc	-1.5369525
44	0x3f2148e3	0.6300184
45	0xbe8299a7	-0.25507852
46	0xbfca0ce0	-1.5785179
47	0x3fe41fff	1.7822264
48	0xbf112a3b	-0.56705064
49	0x3f25786c	0.64636874
50	0xbfd92e09	-1.6967174
51	0xba65971f	-0.00087581755
52	0xbfa84686	-1.3146522
53	0xbfd9dc3b	-1.7020334
54	0x3fa1206d	1.258802
55	0xbf0c0af5	-0.5470422
56	0xbe5c73ad	-0.21528502
57	0xbf17fcf6	-0.5937036
58	0xbd6dc61d	-0.058050264
59	0xbf1b7a3b	-0.60733384
60	0xbf1a852d	-0.6035946
61	0xbfd7597d	-1.6824185
62	0x3ed21f58	0.41039538
63	0x3e1d0411	0.15333582

disenlayers.0.bias_list.0 f4 [1, 8]
0	0xbf174552	-0.5909015
1	0x3d1aec24	0.037822857
2	0xbf26b0b9	-0.6511341
3	0xbfad76b0	-1.3551846
4	0xbf01cbe7	-0.50701755
5	0xbf5c0f93	-0.85961264
6	0xc0194b43	-2.3952186
7	0xbf62b8d3	-0.8856327

disenlayers.0.bias_list.1 f4 [1, 8]
0	0xbf91e609	-1.1398326
1	0x3deb257c	0.11481759
2	0x3f8d6ab4	1.1048188
3	0x400efe3f	2.234268
4	0xbe6f6f15	-0.23382218
5	0x3f9cf99b	1.2263674
6	0xbf08149a	-0.53156435
7	0xc002dbf9	-2.044676

weight f4 [1, 16]
0	0xb995c3a3	-0.00028565255
1	0xbe71fe8f	-0.23632263
2	0x3ba7610d	0.005108005
3	0x3f217236	0.630649
4	0xbf2e85c1	-0.6817284
5	0xbed4f985	-0.41596618
6	0x3f01986d	0.5062321
7	0x3f37783e	0.7166785
8	0xbefcd016	-0.49377507
9	0x3ef79df1	0.48362687
10	0x3e62d41d	0.22151227
11	0x3d3b721c	0.04576312
12	0xbeb2770c	-0.3485645
13	0x3e9d0091	0.30664495
14	0x3e0b4c3d	0.13603301
15	0xbf057f2a	-0.5214716

weight f4 [2, 8]
0	0xbeaab414	-0.33340514
1	0xbf0ea5cc	-0.55721736
2	0xbea01cde	-0.31272024
3	0xbe82acfe	-0.25522608
4	0xbe22ffe6	-0.1591793
5	0x3d8cdb6e	0.068777904
6	0xbe48869b	-0.19582598
7	0x3eeed611	0.46647695
8	0xbf2ce14b	-0.6753127
9	0x3f0dff60	0.55467796
10	0xbed045f1	-0.4067836
11	0xbe849a48	-0.25898957
12	0xbef771c8	-0.48328996
13	0x3e11eddb	0.14250891
14	0xbd786d04	-0.06065084
15	0x3f07cce3	0.5304701

bias f4 [2]
0	0xbe0f9f80	-0.14025688
1	0x3e0f9f7e	0.14025685
