Weights/model_weight.pt_pokec_n.pth (torch, 27989 bytes, 15 tensors)

assigner.layers.0.weight f4 [2, 532]
000000 89 48 da bd 74 4a 39 3d d5 ee 81 3d ce 14 d8 bd
       -0.10658366 0.04523702 0.06344382 -0.10550843
000010 44 34 a7 bd 0f 41 af bd 4e 72 a4 3d 7f 67 33 3e
       -0.08164266 -0.08557331 0.080296144 0.1751995
000020 e5 65 b2 bd 8d b7 70 3e 73 d6 30 3c d5 10 d6 3d
       -0.08710841 0.23507519 0.010793316 0.10452429
000030 cc 0b a3 3d c6 42 2d 3e 3f 51 0c 3e 53 4d 12 be
       0.079612345 0.16920003 0.13702868 -0.1428731
000040 7a 74 ce 3d 30 95 53 39 f2 5d 9a 3d 2a 32 15 3e
       0.1008081 0.00020178105 0.0753745 0.14569917
000050 f5 83 d3 3c 02 0e da 3c 19 9e 1e be e8 1f 1c be
       0.025819758 0.026618008 -0.15489997 -0.15246546
000060 ef c9 89 3d 38 c3 a6 3d 32 a8 16 3d 7f 07 5b bc
       0.06727969 0.08142704 0.036781497 -0.013368486
000070 43 f4 4a 3d c1 36 21 be c9 20 a6 3d cc 67 94 bc
       0.049549352 -0.15743543 0.08111722 -0.0181159
000080 f3 f8 9c bd 20 17 40 be 25 ac 64 3d e7 fa cf 3d
       -0.07664671 -0.18758821 0.055828232 0.10155278
000090 a0 38 bb 3d 61 45 29 be 65 f5 ba bd 93 c5 e5 bc
       0.0914166 -0.16530372 -0.091288365 -0.028048312
0000a0 37 54 6c bd 2c 4c ce bd d5 a0 2f be 5c e0 49 bd
       -0.0576975 -0.100731224 -0.17151196 -0.04928623
0000b0 54 2f 5d be 40 35 11 bd a3 5c ef bd fa 6f 78 3c
       -0.21600085 -0.035451174 -0.11687591 0.015163416
0000c0 fe da 02 3e ca 40 c6 bc 00 50 5a 3d dc f1 ef bc
       0.12778851 -0.024200816 0.05329895 -0.029290132
0000d0 b0 4b 06 3e b5 28 b3 bd 34 fd 00 3d d1 63 56 bd
       0.1311481 -0.087479986 0.031491473 -0.052341286
0000e0 34 82 79 be a2 1e 97 bc af 00 13 3b fb ef 86 bd
       -0.24366075 -0.018447224 0.0022430827 -0.065887414
0000f0 56 df 03 bd 8f e7 d2 bc c7 d9 1c bc 95 5a ac 3d
       -0.03219541 -0.025745181 -0.009573407 0.08415715
000100 a4 25 31 3e 19 33 f1 bc 8b 78 7c bd 02 72 09 be
       0.17299515 -0.02944331 -0.061638396 -0.13422397
000110 f9 07 34 bc aa 84 97 bd ab 2d 04 be c4 dc ba bd
       -0.010988229 -0.073983505 -0.12908046 -0.09124139
000120 27 d9 78 bd 92 ff 68 bc d3 79 54 bb 91 ac 2b bd
       -0.060753968 -0.014221089 -0.0032421246 -0.04191262
000130 67 48 21 bc 2d 9e fd bd cb f1 04 be b3 8c ff 3c
       -0.009843922 -0.12383685 -0.12982862 0.03119502
000140 38 af f5 bd c9 96 44 3b 1c 4f 21 be 37 6c 99 3d
       -0.11996311 0.0029997102 -0.15752834 0.074913435
000150 b7 3e 1c be 92 f1 47 be 44 25 11 bd 03 fc c0 bd
       -0.15258299 -0.19525746 -0.03543593 -0.094230674
000160 76 ad 2d be 32 82 39 be a0 cc 2b 3d 40 9a 00 bd
       -0.16960701 -0.18116072 0.041943192 -0.031397104
000170 62 be 04 3d 14 4b cc 3d b7 b4 72 b7 eb 53 94 bd
       0.032408126 0.099752575 -1.44664e-05 -0.072425686
000180 a2 6a 28 be 42 a9 fd 3c cf f9 d0 3d ac 11 ec bd
       -0.16446927 0.030964497 0.10203897 -0.11526808
000190 99 9b 48 3d 1d 9d c8 bb fc 29 af 3b b1 bc ef 3d
       0.048976514 -0.006122245 0.005345581 0.11705912
0001a0 96 b9 80 bc 52 d1 8d be a4 58 01 be be e5 aa bd
       -0.015713494 -0.2769876 -0.1263147 -0.08344601
0001b0 47 64 56 3d e1 32 9e bd af 44 33 bd 22 24 62 3d
       0.052341726 -0.07724548 -0.043766674 0.05521024
0001c0 4b ca 0b 3e 6a ba 1c be 9d 66 88 bd e3 4b 14 3d
       0.13651387 -0.15305486 -0.06660197 0.036205184
0001d0 f7 59 50 3c bc 66 10 bc da a4 01 be 9c 54 96 bd
       0.012716762 -0.008813556 -0.12660542 -0.07340357
0001e0 78 5a 55 bd 52 c4 f1 bd de f7 1a bc a8 bf ff 3c
       -0.05208823 -0.11805023 -0.00945851 0.031219319
0001f0 59 3f 98 bd 91 57 c2 bd 46 4c e8 3d 66 6e 1c 3e
       -0.074339576 -0.09489358 0.11342673 0.15276489
000200 e2 e8 61 3e 71 13 43 3e ed 7c 92 bd 44 90 d6 3d
       0.22061494 0.19050385 -0.07152734 0.10476735
000210 01 d1 42 bc 45 51 39 bb 5c e5 eb bc 57 f1 63 3c
       -0.011890651 -0.00282772 -0.02879589 0.01391252
000220 26 cc 99 bc f7 c9 da 3d ea 59 0b 3e 05 2e e8 bd
       -0.018774103 0.10683053 0.13608518 -0.113369025
000230 d6 93 f2 3d 25 ee c4 bd c3 2a 7e be 29 db 52 be
       0.11844604 -0.09615735 -0.24821 -0.20591415
000240 cd d1 a0 bc 25 84 9e 3d da 47 c0 bd b5 ac 58 3d
       -0.01963129 0.07740048 -0.093887046 0.05289908
000250 15 77 9e 3c d8 69 45 3c 82 a8 3b 3e 84 53 15 3e
       0.019343892 0.012049161 0.18326 0.1458264
000260 50 93 0a 3d 06 5d 40 bd 50 da bc 3d 34 2b ae 3c
       0.033831894 -0.046963714 0.09221327 0.021260835
000270 b9 87 ea bd e8 2e 1c 3d 89 55 1a 3e fa 34 8c 3d
       -0.11451668 0.03813067 0.15071692 0.06846042
000280 d4 1e c4 bd 42 6c da 3c 28 c6 0a be 80 61 a6 bd
       -0.095761925 0.02666295 -0.13552153 -0.081240654
000290 e9 7f 28 3e d4 00 f7 bc a3 02 bf bd 3c 3b ef 3d
       0.16455044 -0.030151762 -0.09326675 0.1168122
0002a0 d0 94 e3 bb da 52 70 3d 2a a5 db bd e7 8b 22 be
       -0.00694523 0.058672763 -0.10724862 -0.15873681
0002b0 66 e4 73 3d b5 a6 b1 bd e5 68 25 3e 81 64 e1 3d
       0.05954399 -0.08674375 0.16153295 0.11005498
0002c0 90 32 9d bd 0a 32 90 bd 87 af 52 bd 58 9a 90 3d
       -0.0767566 -0.07040794 -0.051436927 0.07060689
0002d0 55 b2 1d be c4 5e 00 3d 80 5f 56 bc 0f 0c 88 3d
       -0.1540006 0.031340376 -0.013084292 0.06642925
0002e0 50 8b f4 bd c1 a4 b1 3a 8f 78 0c be 39 0f 07 3d
       -0.11940634 0.0013553129 -0.13717864 0.0329735
0002f0 be 39 69 3d 7d 44 00 bd 01 a3 d4 bd f7 eb 2b b9
       0.056939833 -0.031315316 -0.10382653 -0.00016395735
000300 44 33 8e bd ed 61 ab 3d 60 0a 7f 3d 83 87 23 be
       -0.06943372 0.08368287 0.062265754 -0.15969662
000310 c8 86 22 bd 80 d6 b1 bc 0d b1 2a bd 8e 16 5a be
       -0.03967932 -0.021708727 -0.041672755 -0.21297666
000320 e9 26 24 be 0e 99 3a be e9 2c d5 bd df 3f 8c 3d
       -0.16030468 -0.18222448 -0.104089566 0.0684812
000330 6f c7 48 3d 4d 05 68 3d 21 d2 02 3d e0 20 86 bd
       0.04901832 0.05664568 0.031938676 -0.06549239
000340 20 70 08 3d 72 2b a4 3c 89 72 25 be a8 b8 16 be
       0.033310056 0.020040248 -0.16156973 -0.14718878
000350 d8 0d 5a 3e 72 da 3f bd cc 7d 07 be 1e e4 17 be
       0.21294343 -0.046839185 -0.13231581 -0.14833114
000360 5c 81 09 bd dc 83 cd bb 24 65 ae 3d c9 7a 8f bc
       -0.033570632 -0.0062718224 0.08515385 -0.017514603
000370 3a d5 98 3d 59 99 16 3c f4 bc 1d 3e fc df 41 be
       0.07462545 0.009191834 0.15404111 -0.189331
000380 56 f0 ef 3c 7c 25 34 bd 6f 32 12 3e 25 77 1d bc
       0.029289406 -0.04398106 0.14277051 -0.009610926
000390 4c 80 a2 bd 75 ce f2 3d fe 92 2d be fc e1 9d bc
       -0.07934627 0.11855785 -0.16950604 -0.019272797
0003a0 aa 44 82 3d cc 4a 39 be 2e 20 f5 3d 1e 73 47 3d
       0.06360753 -0.18094939 0.119690284 0.04869377
0003b0 cd 2c 87 bd 10 93 8d 3d 75 c4 52 3d 39 11 1c be
       -0.06600342 0.069128156 0.051456887 -0.15240945
0003c0 fd bd 3e 3e 78 88 b6 3d d1 a7 91 bd ec 47 d4 3c
       0.18627162 0.08912748 -0.071120866 0.025913201
0003d0 3e 04 83 bb 49 a4 05 bd 34 bc bd 3c f1 d5 a7 3d
       -0.0039983084 -0.032627378 0.023161031 0.08195103
0003e0 2c be 08 bd 45 0d 36 bd f1 12 3f be 2d 13 8b bd
       -0.033384487 -0.04444625 -0.1865957 -0.06790767
0003f0 fd b5 3b 3d 52 36 f7 bd 71 86 41 3c ce 5c bd bb
       0.045827854 -0.12070908 0.0118118385 -0.0057788854

assigner.layers.0.bias f4 [2]
000000 d9 8f 18 bd 67 84 1a 3d
       -0.03724656 0.037723925

assigner.layers.1.weight f4 [2, 2]
000000 41 5e d9 3e 1d 57 6d 3e 79 d9 19 bd 1b cd 9c 3f
       0.42454723 0.23177762 -0.037560914 1.2250093

assigner.layers.1.bias f4 [2]
000000 05 2c 1a bd 05 2c 1a 3d
       -0.037639637 0.037639637

disenlayers.0.lin_layers.0.weight f4 [8, 266]
000000 f0 20 1c 3d 7f 55 30 3d ba a1 13 3e f0 fd 82 3d
       0.03811735 0.043050285 0.14417163 0.06396091
000010 c1 a0 96 3d 46 18 3b 3d d4 75 60 3d b6 a6 1d 3e
       0.0735488 0.045677446 0.05479987 0.15395626
000020 a9 8f e9 bc aa 65 b6 3d d0 60 46 3d 42 d6 a7 3d
       -0.028510885 0.0890611 0.04843217 0.08195163
000030 46 c0 fb 3d f4 5b ba 3d 99 bb 53 3d bd ff d8 bd
       0.122925326 0.0909957 0.05169258 -0.10595653
000040 aa d2 2a 3e 30 f9 fc 3c 1e 29 95 ba 1d f3 28 3e
       0.16681924 0.03088054 -0.0011380052 0.1649899
000050 84 0a b2 bd 3f 4f a5 bd 9c cc 73 3d d0 3d 33 bd
       -0.08693412 -0.080717556 0.059521303 -0.04376012
000060 d1 a9 ad 3b 0d 00 88 3d e8 fe 4a bd 20 4f 86 3d
       0.0052997847 0.06640635 -0.049559504 0.06558061
000070 14 03 ee 3d 60 52 18 3c db 98 08 3e 4d 87 35 3e
       0.11621681 0.0092969835 0.1333956 0.17727394
000080 0b 3f c7 bd 28 a2 b7 bc a1 17 6f 3c d2 a3 fb 3d
       -0.09728821 -0.02241619 0.014593036 0.122871056
000090 9b 4d ed 3d 7a 59 d7 3d 04 db 8b 3d 99 c3 80 bd
       0.11587068 0.10515113 0.06828883 -0.06287307
0000a0 1e 10 a9 bd fc a9 33 be da 54 26 bd 46 11 41 3d
       -0.08255027 -0.17545313 -0.040608265 0.047135614
0000b0 35 81 40 be 9d 8e 77 bd 95 8a 2e 3d 77 98 e9 3d
       -0.18799289 -0.06043874 0.04261263 0.114060335
0000c0 68 47 ae 3c 47 74 da 3d 4d b6 c8 3d 31 3c 08 3e
       0.021274284 0.106667094 0.09800396 0.13304211
0000d0 d8 9d e7 3d 66 9a 14 3c d9 28 00 3e b0 11 18 3e
       0.11309403 0.009070015 0.12515582 0.14850497
0000e0 3d e9 0b 3b 66 a0 b6 bb 39 49 0c 3e e9 68 69 bd
       0.0021348738 -0.00557332 0.13699807 -0.056984816
0000f0 a3 95 05 3e 7f 79 da bc 04 a9 01 be a5 a0 50 3d
       0.13045363 -0.026669262 -0.1266213 0.050934453
000100 04 1d cf 3d 30 65 22 b8 68 5b e8 bd c3 c0 d1 3d
       0.10112956 -3.8718048e-05 -0.11345559 0.102418445
000110 46 c4 33 3e b4 f5 9e 3d 44 06 01 be 0c 4b 66 3d
       0.17555341 0.07761708 -0.12600046 0.056223914
000120 cc c6 1f be 41 84 e8 bd 48 90 82 bd b7 53 09 be
       -0.15603179 -0.113533504 -0.06375176 -0.13410841
000130 ff 85 03 3e 28 45 f1 3c 7d 20 d7 bd e0 7f 7c 3d
       0.12844084 0.029451922 -0.105042435 0.06164539
000140 57 95 c1 bd aa 18 3e 3d f8 2e 2d bd e8 06 11 3e
       -0.094523124 0.04641024 -0.04228112 0.14162791
000150 64 f3 a3 3d e4 49 0d be 12 9b 81 bc bb 29 28 3e
       0.080054075 -0.13797718 -0.015821014 0.16422169
000160 35 2b dd 3c 88 9c 61 bd d0 ee e3 3b c3 6a 9f 3d
       0.026998142 -0.05508092 0.006955959 0.07784035
000170 45 21 03 3e 2a 7e 08 3e 53 25 ac 3d 88 99 e9 3d
       0.1280566 0.13329378 0.084055565 0.11406237
000180 0d 6c 84 bd 59 0e d7 3d 05 28 fd bc 89 af 0f be
       -0.064659216 0.105007835 -0.030902872 -0.14031805
000190 6b 6a b0 bd 7b cb 4a bd ae 9e 8e bd 5b 27 91 bd
       -0.086140476 -0.04951046 -0.069638595 -0.070875846
0001a0 5c bd d3 bd 60 60 0e be 58 13 9b 3d da 65 ce 3d
       -0.10338852 -0.13903952 0.07572049 0.100780204
0001b0 23 12 01 3e ae 42 03 3e bb 34 11 3d d4 52 9e bd
       0.12604575 0.12818405 0.03545068 -0.07730642
0001c0 a2 64 66 3b be ac 7f bb 1a ca e0 bd 2b 33 bf 3d
       0.0035155197 -0.0039012874 -0.10976048 0.093359314
0001d0 97 8b cd 3b 76 85 22 bd 07 f1 9d 3d fa 67 00 be
       0.006272744 -0.03967806 0.07711988 -0.12539664
0001e0 b9 5f 06 3d 53 ac 00 bc f4 3e 8b 3d e9 6b 56 3d
       0.032806132 -0.007853585 0.06799117 0.052349005
0001f0 75 5a 19 3e ba eb f5 bd d9 56 8b 3d 47 bc b0 bd
       0.14975913 -0.12007852 0.06803674 -0.08629661
000200 a2 18 9e bd bd a7 24 be 02 98 ef 3d 2a 6e cb 3d
       -0.07719542 -0.16079612 0.11698915 0.099331215
000210 dc 5d a6 3d 94 5d 3f 3c 44 27 fc bd 2f 80 9a bd
       0.08123371 0.011680026 -0.12312177 -0.0754398
000220 bd 3e 0e be d1 12 b9 3d d5 42 c3 bc ff 33 02 be
       -0.1389112 0.09036792 -0.023835579 -0.12715147
000230 b3 31 97 bd 99 5b b6 bd c8 a5 19 be dc 24 dd bd
       -0.07382526 -0.089041896 -0.15004647 -0.10798046
000240 4e b5 73 3d 55 47 a7 3d 4f fd eb 3d cc e1 aa bd
       0.059499077 0.081679024 0.11522924 -0.083438486
000250 c8 43 24 3d ff ff 34 3e 74 ac d5 3d 2e 9f 60 bd
       0.040103704 0.1767578 0.104332834 -0.054839306
000260 ea 99 1c 3d 03 87 a0 3c 1e c1 ce 3d 7f fd de 3d
       0.03823272 0.019595629 0.10095428 0.10888194
000270 9c 76 a7 3b a5 a3 44 3c 8f cb 1e bc ec b9 a0 bd
       0.005110575 0.0120019065 -0.009692087 -0.07847962
000280 00 36 3c bd d0 2d 51 3c 78 57 ea 3d 38 33 c4 3c
       -0.045949936 0.01276727 0.114424646 0.023950204
000290 63 66 c3 bd 99 71 c0 3d ee 40 ea 3d a7 a2 e7 bc
       -0.09541013 0.09396667 0.114381656 -0.0282758
0002a0 fa 8c a1 3d 81 b0 03 3c 7e 4c 60 bd 64 d9 90 bc
       0.07888217 0.008037687 -0.05476045 -0.017681785
0002b0 c4 6c 78 3d c3 6a 63 3d 22 3f 17 3e 1c 1b 11 3e
       0.060650602 0.055521738 0.14770177 0.14170498
0002c0 a3 5b b8 3d 6c 4a 30 3d f8 7b 98 3d db 4e 62 3d
       0.09001853 0.043039724 0.0744552 0.055250984
0002d0 b1 99 3f 3d ab 90 ec 3d 4d 6a 9d bd 0b 74 8e 3d
       0.04677743 0.11551031 -0.07686291 0.06955727
0002e0 a1 18 a5 3d 56 c3 0f be 73 9d 10 be 41 96 f8 3d
       0.08061338 -0.14039358 -0.14122562 0.12138034
0002f0 5c 97 be 3c 1e 31 9f bc dd 3f 02 be a7 9a 82 bd
       0.023265533 -0.0194326 -0.12719674 -0.06377154
000300 19 e6 85 3d ce 09 c5 bb ac 3a 29 3e 6d d0 8f 3c
       0.06538028 -0.0060131317 0.16526288 0.01755544
000310 83 83 cd 3d 4a 16 8a bc 71 4e 0c be 66 f4 d9 bd
       0.100348495 -0.016856331 -0.13701798 -0.106423184
000320 a3 f2 15 bc 29 99 83 3d c0 f6 82 3d 5a 16 81 3d
       -0.009152087 0.06425697 0.0639472 0.06303091
000330 67 82 02 3d 1c c5 fa bc 38 7c 86 3d ea d4 aa bd
       0.031862643 -0.030611567 0.065666616 -0.083413914
000340 e7 a1 04 3d 41 90 c2 bd 0d 1f 8d 3d fb a4 ee bd
       0.032380965 -0.095001705 0.06890688 -0.11652561
000350 e5 4b dd 3d 3a 28 1f bd 59 ae 95 bd 37 22 ae 3d
       0.10805491 -0.038856722 -0.07308645 0.0850262
000360 d7 26 0e 3e 3b 76 c6 bd 3d 98 14 3d b0 83 3a 3d
       0.13882004 -0.096905194 0.036278 0.045535743
000370 f9 af f6 3d e8 35 07 3e 9e 51 9f 3d e6 6e d2 bd
       0.12045283 0.13204157 0.07779239 -0.102750584
000380 0b 5d 0b 3d 85 a2 c0 3d c7 84 bb bd 35 f3 ab bc
       0.03402428 0.09405998 -0.09156185 -0.020989994
000390 83 1e 42 3e f0 50 32 3e 85 af 41 bd 84 17 57 bd
       0.18956952 0.17413688 -0.04728653 -0.05251266
0003a0 b5 b7 a2 3c 07 c1 23 bb 31 db 0c 3e c1 b4 24 3e
       0.019862989 -0.002498688 0.1375549 0.16084577
0003b0 76 46 be 3c 59 99 d3 bc f4 57 39 3e c0 dd 65 3d
       0.023226958 -0.025829958 0.18099958 0.05611968
0003c0 5e b4 1b 3e cf e7 c1 bd 3d 49 3a 3d 54 62 a1 3d
       0.15205523 -0.09468042 0.04548 0.07880083
0003d0 0d 1f b9 bd a6 0a d1 bc 40 ea 00 be 40 35 33 3e
       -0.090391256 -0.025517773 -0.1258936 0.17500782
0003e0 4d 28 02 3e 7d 91 3f 3c 55 7c 28 3d b8 fb 87 bd
       0.12710686 0.011692402 0.041134197 -0.066398084
0003f0 ba ff 56 ba cc 69 5c bc 08 35 0c 3e e1 7a 20 bd
       -0.00082015584 -0.013452958 0.13692105 -0.039179686

disenlayers.0.lin_layers.0.bias f4 [8]
000000 f7 90 bb 3b c0 2b 30 bd 5f 32 87 3c 1d ab 28 3c
       0.0057240683 -0.043010473 0.016503511 0.010294703
000010 dd 74 47 bc 21 6d a4 bd 06 9b fe 3b 59 79 db 3b
       -0.0121738585 -0.08028627 0.007769945 0.0066978154

disenlayers.0.lin_layers.1.weight f4 [8, 266]
000000 64 6e b6 3c 69 54 54 3d 36 1e 5a 3e 36 cd 6d bc
       0.022269435 0.051838312 0.21300587 -0.014514258
000010 c9 83 23 3d 6d db a2 3c 0b 02 e7 3d 74 21 5c 3d
       0.039920602 0.019880021 0.112796865 0.05374284
000020 39 e4 3c 3a db 3a ac 3d 0c a8 0b 3c 19 2c 65 3e
       0.00072056387 0.08409663 0.008523952 0.22380103
000030 1a 6b a5 3d 07 cc 27 3e de 07 38 bd f3 ea 6c bc
       0.080770686 0.16386424 -0.044929378 -0.014460313
000040 ed b7 09 3e 9c b9 40 3e 57 c4 4f 3e df 60 5b 3e
       0.13449068 0.18820804 0.20289741 0.21423672
000050 da 4d 7a 3e 87 3f 1d 3e 4b 8a 6d 3d 93 3e 00 3d
       0.2444376 0.15356265 0.057993215 0.031309675
000060 ae 3e 94 bc f2 2f 78 3e 31 7b 3d 3d f8 f5 55 bc
       -0.018096294 0.2423704 0.046260063 -0.013059132
000070 51 20 81 3d 62 d8 f1 bd cf 14 49 3d cc 38 20 3e
       0.06304992 -0.1180885 0.04909211 0.15646666
000080 63 79 6c 3d 60 9e cd 3d 2f b2 a0 bd 18 9b 72 3d
       0.05773295 0.10039973 -0.07846486 0.05922994
000090 c1 bc 2f 3d 52 4c 16 3e d5 e4 52 bd a4 ea 34 bc
       0.04290462 0.14677551 -0.051487762 -0.011042271
0000a0 da 9e ba 3d d7 64 3b 3b 89 59 4c bb 9b b0 86 bd
       0.0911233 0.002859404 -0.0031181297 -0.065766536
0000b0 92 57 9e 3c 5e 99 8f bd bc 40 d9 3d 74 d8 f3 3d
       0.019328866 -0.07011674 0.1060805 0.119065195
0000c0 05 fb 14 3e 0a 85 f8 bd 4f 5f 98 3d 85 f1 0b 3e
       0.14548881 -0.1213475 0.07440054 0.13666351
0000d0 1d 15 50 3e 96 20 62 3d 39 c5 5a 3e 3d 97 49 3e
       0.20320554 0.055206858 0.21364297 0.19686599
0000e0 0c 61 0c be 4a 43 46 3e ba 1d d4 bb d1 56 f7 bc
       -0.13708895 0.19361606 -0.0064732702 -0.030192764
0000f0 93 ce 08 3e 0e 3c 80 bd 7e 62 aa bd 63 59 67 3d
       0.13360052 -0.062614545 -0.08319567 0.05648173
000100 45 ca 18 3e 09 a3 0a be c5 02 fd bd 9a 75 36 3e
       0.1492091 -0.13538755 -0.12354044 0.17818299
000110 53 ea 4c 3e d7 70 89 3d 78 6e 22 3e 5f d9 a9 3c
       0.20011263 0.067109756 0.15862453 0.020733533
000120 8c 07 1a 3e 64 8c 5a bd 5b a2 49 3e ff 00 8d 3d
       0.15041941 -0.053356543 0.1969084 0.068849556
000130 99 17 57 3e 4c b8 a7 3d 2a ee 11 be 7b 44 29 3e
       0.21005096 0.08189449 -0.14251009 0.1653003
000140 5f 54 2a 3e 3c 4f 27 3e f8 dc 0d be cf 8f 29 3e
       0.16633748 0.1633882 -0.13853824 0.16558765
000150 84 63 35 be 92 3a 1e bd a9 77 cf 3c 15 33 4e bd
       -0.17713743 -0.038630076 0.025325613 -0.050341684
000160 a2 1a 1b 3e 20 44 dd 3b bb 0b 4c bd 8c 92 35 3e
       0.15146878 0.006752506 -0.049815875 0.17731684
000170 a0 13 e9 3d 3b ab 6b 3e 85 de 09 3e 18 c1 0e 3e
       0.11380696 0.23014538 0.1346379 0.13940847
000180 b6 4a de 3d 16 08 97 3d 91 bf 4a 3e 4e 8c 2d bd
       0.10854094 0.07374589 0.1979964 -0.042370133
000190 ca ac f3 3b 5a d2 e3 3d 86 93 65 3c 0d 7a 09 3b
       0.0074363695 0.11124106 0.014012223 0.002097729
0001a0 9e 7c af 3d 00 2f a5 bd 5d 93 d6 bc e0 b7 1c bd
       0.08568691 -0.08065605 -0.026193315 -0.038261294
0001b0 55 41 88 bc 09 56 15 3e ee c3 c1 3c cf b5 46 3d
       -0.016632715 0.14583601 0.023652997 0.04851323
0001c0 3b a4 be 3c 00 2b 45 3d 9a e8 08 bc ee f9 84 3d
       0.02327167 0.04813671 -0.008356238 0.06492983
0001d0 4b ff fc bb b4 0e 8b bd 1c 1c 38 3d 84 e0 23 3d
       -0.007720863 -0.06789914 0.044948682 0.040009037
0001e0 7c da 92 bd d5 e0 d9 3d 2b 1a d7 bd 4f 28 57 3e
       -0.07170579 0.106385864 -0.10503038 0.2101147
0001f0 8b 7c 05 3b b2 01 64 3c de c5 db 3d c3 9d ad 3c
       0.0020368423 0.01391642 0.107310995 0.02119339
000200 15 c3 c3 3d de a1 80 3d 27 a0 8d bd 96 37 03 3e
       0.09558693 0.06280874 -0.06915312 0.12814173
000210 d5 20 95 3d 13 51 ab 3d 97 5d e6 bd a8 4e 27 3d
       0.07281653 0.08365073 -0.112483196 0.040846497
000220 e2 0d fd bc e5 99 9c bd 01 fd da bc d5 82 80 bd
       -0.030890409 -0.076465406 -0.02673197 -0.06274954
000230 0b 4c 80 3e 29 04 85 3d 63 81 42 be 88 e0 c7 bd
       0.25058016 0.06494934 -0.1899467 -0.09759623
000240 70 5c e3 3d c1 c1 55 3e b8 1e 43 3e 00 1a 4f 3e
       0.111016154 0.20874692 0.19054687 0.20224762
000250 58 32 05 3d ee 1e 6c 3e 8b 27 2b 3d da 8a a6 3d
       0.032518715 0.23058674 0.041785758 0.081319526
000260 d0 76 b9 bc d9 d6 31 3e 81 32 76 3a 67 11 af bd
       -0.022639662 0.17367114 0.0009391681 -0.08548241
000270 a8 ed 1e 3e 8e 15 73 3e 1f 3f 36 3e 7d 9b 9e 3d
       0.15520346 0.23738691 0.17797516 0.07744501
000280 31 da 0f 3d 81 44 20 3e f2 fa ae bd 6c d6 29 3b
       0.035120193 0.15651132 -0.08543958 0.002591516
000290 c9 49 61 3d 4a 2f 63 3d 3d a5 ec 3d ab 6a 38 3d
       0.055002008 0.05546502 0.11554954 0.0450236
0002a0 87 1f e4 3d f1 bb 6f 3e fa 9b e8 3d 74 83 da 3d
       0.11138826 0.23411538 0.11357875 0.10669604
0002b0 18 7c 4a 3e 34 48 d1 3c 38 8c 47 3e 26 00 31 3e
       0.197739 0.025547124 0.19487083 0.17285213
0002c0 d9 8e 1a 3e e0 23 3a bd 7d 0f 32 be 77 90 34 3d
       0.15093555 -0.04544437 -0.17388721 0.044083085
0002d0 a2 d8 96 3d ae 6f e0 bc 6a 58 34 3d 79 20 ea 3d
       0.07365538 -0.027397003 0.04402963 0.11431975
0002e0 a5 1d 3b be b0 fc 37 be 03 9d e2 3d b2 ae d2 bd
       -0.18273027 -0.17967486 0.11065104 -0.10287227
0002f0 00 36 19 3d 35 f9 27 3e c7 ef f7 3d 8d f5 94 3d
       0.037405014 0.16403659 0.12106281 0.072733976
000300 84 a1 71 3d 18 b0 2a 3e 03 4a 63 3e cb cf 22 3d
       0.058991924 0.16668737 0.22196202 0.039748948
000310 62 07 31 3e da d1 be 3d b5 5e 27 be 09 cc 26 be
       0.17287973 0.0931737 -0.16344722 -0.1628877
000320 ee 85 29 3e 55 3e 46 be a0 35 31 3e 26 f1 3e 3e
       0.16554996 -0.19359715 0.17305613 0.18646678
000330 2c 48 8b 3d 20 70 61 3e 0f 51 b5 3c 1c b7 6e 3e
       0.06800875 0.22015429 0.022133378 0.23312038
000340 38 24 8e b8 97 09 ac 3d f4 c3 e8 bd 4e 91 d5 3c
       -6.777834e-05 0.084002666 -0.113655 0.026070263
000350 67 bf 99 bb 82 8f 3b bd 5e a6 50 bd 8f a8 8b bc
       -0.0046920064 -0.045791157 -0.05093991 -0.017048148
000360 1c 37 05 bd fc 4e e0 3d 12 cc b8 3c fc be fd bc
       -0.03252326 0.10952565 0.022558246 -0.030974858
000370 c4 2a 37 3e 7d 5a 19 3e 4b 14 41 3e 82 6a 59 bd
       0.17887408 0.14975925 0.18855397 -0.05308009
000380 0c 7a ed 3d 94 d3 61 3d 0f 64 38 3d 46 1f f2 3d
       0.11595544 0.055133417 0.0450173 0.11822371
000390 bd 18 0e 3e b2 0e a4 3b 76 dd 88 3c 90 97 2f 3e
       0.13876624 0.0050066346 0.016707163 0.1714766
0003a0 10 4d d4 3d e8 af 34 3e 2c 2e 3c bc 64 69 41 3e
       0.10366261 0.17645228 -0.011485618 0.1888786
0003b0 72 92 1e 3e 63 fe 9c 3c fe e8 72 3e ab e2 6f 3e
       0.15485552 0.01916427 0.23721692 0.2342631
0003c0 1a a0 9c 3c c6 c8 09 3e 55 44 20 3d fe d2 6c bc
       0.019119311 0.13455495 0.039127667 -0.014454601
0003d0 16 7d 8a 3d 60 6c 6d 3e 3f d9 9c bc 33 10 c2 3d
       0.067621395 0.23185873 -0.01914656 0.09475746
0003e0 55 11 34 3e 13 35 f3 3d 44 4a ad 3d 5b 75 29 3e
       0.17584737 0.118753575 0.08461431 0.16548674
0003f0 a9 f5 b7 3c 54 d9 54 3e e3 fc 1f 3e 24 11 03 be
       0.022456007 0.20786029 0.15623812 -0.12799507

disenlayers.0.lin_layers.1.bias f4 [8]
000000 d8 cc 29 3d 6d de 1a bd ec 0a ff bc 81 d7 75 bd
       0.04145512 -0.037809778 -0.031133138 -0.060019974
000010 04 ec 8e bd d5 64 e1 3c 3d 42 b8 3b fd fd b6 bc
       -0.0697861 0.0275139 0.0056231306 -0.022337908

disenlayers.0.conv_layers.0.weight f4 [8, 8]
000000 7e 11 96 bf 62 da 16 3e d4 c1 2d bf c3 28 03 bf
       -1.1724088 0.14731744 -0.67873883 -0.5123407
000010 d5 a5 a5 3f 56 28 94 bf 19 1d fc 3e d0 e1 a4 3e
       1.2941233 -1.157481 0.4924095 0.3220353
000020 b3 77 8d bf df f7 19 40 bb 09 cf bf 79 0c 54 3e
       -1.1052154 2.4057539 -1.6174845 0.20707883
000030 9b 24 61 be 35 da c3 3e 06 eb 0b bf f5 11 e8 3f
       -0.2198662 0.38252416 -0.5465549 1.813048
000040 9d 3b 51 bf 7d 39 26 3f 2e ac 99 be 48 a0 f0 bd
       -0.8173159 0.6493147 -0.30014175 -0.11749321
000050 5a 6a e1 bf 04 1c 78 bf ae 73 be be fd 8a 23 3f
       -1.7610581 -0.9691775 -0.37197632 0.63883954
000060 41 5b 41 3e d6 5f d9 bf 7e 55 9b bf 6f 23 34 bf
       0.18882467 -1.6982372 -1.2135465 -0.7036657
000070 08 cf 9a 3f 71 c3 7a bf c9 3c 46 bd 98 23 c6 3f
       1.2094431 -0.9795447 -0.048397813 1.5479612
000080 59 c9 cc 3f 1e fe 30 40 98 bd b4 be 15 3b 8e bd
       1.5998946 2.76551 -0.353009 -0.06944863
000090 9e 20 24 c0 48 70 a9 3d 36 62 bc 3e 8e 82 0c bf
       -2.5644908 0.08273369 0.3679368 -0.5488671
0000a0 ac 5c fa 3f 1e 23 8b 3f 57 4a 1e 3f 5a b5 3c 3f
       1.9559531 1.0870092 0.61832184 0.7371422
0000b0 d7 34 dd bf 64 f0 1f 3f 22 52 1f 3e 2a 6a 7f 3f
       -1.728175 0.6247618 0.15558675 0.9977137
0000c0 45 31 b9 3e db f3 e2 3e 1e b5 1a 40 b4 db 11 3e
       0.36170402 0.44326672 2.4173045 0.14243966
0000d0 b8 1c 8b 3d 69 f0 d3 3e 79 d7 98 bd d5 97 c5 be
       0.06792587 0.41394356 -0.07462973 -0.385924
0000e0 57 fc 67 be cd 6a d6 3e fb 46 d0 be 01 53 db 3d
       -0.22654854 0.41878358 -0.40679154 0.10709191
0000f0 d0 8d 35 3f 6a 11 89 3e d1 9e a5 bd 04 4f 0e 40
       0.70919514 0.26771098 -0.080869325 2.2235727

disenlayers.0.conv_layers.1.weight f4 [8, 8]
000000 f0 0b 63 3f af aa 05 bf 06 01 eb be 3c c6 ab 3f
       0.8869009 -0.5221357 -0.45899218 1.3419871
000010 66 96 67 3e c4 37 ba bf f7 f4 c9 3f be 32 e8 3e
       0.22615966 -1.4548268 1.5777882 0.45351213
000020 c2 a8 7e 3d 0d c0 8d bd 01 de c8 3f a8 a9 99 be
       0.06217266 -0.069213964 1.569275 -0.3001225
000030 f5 fe b2 3f 0d 48 3a 3f bf e4 ea be 12 95 11 c0
       1.3984057 0.7276619 -0.45877644 -2.2747235
000040 3f 3c f9 3d 5c 99 58 be 90 cc ea bf 3a a6 4d 3f
       0.12169694 -0.21152252 -1.8343678 0.80331767
000050 d7 d3 b4 3e 1c 33 26 3e ac b6 7b bf 6d 70 0d 3f
       0.3531787 0.16230434 -0.9832561 0.55249673
000060 5e 42 83 bd 9b 51 9a 3f 18 17 ce be 0f ec 18 c0
       -0.06409143 1.2056154 -0.40251994 -2.3894079
000070 4c 0b c7 be b1 44 f6 be 51 d4 0e 40 ad 79 ee 3f
       -0.38875806 -0.48099282 2.2317088 1.8630883
000080 c6 5a 77 3f 6e ca 64 bf 5b 5c 77 bf e7 6d 6c 3f
       0.96622884 -0.89371383 -0.966253 0.923552
000090 7d 01 8e bf 3a 51 bd 3f e5 31 25 be e9 e7 28 c0
       -1.1094204 1.4790413 -0.16132315 -2.6391547
0000a0 45 61 81 bf e5 68 ca be bc ed 70 3f 2c 2a a9 bd
       -1.0107809 -0.39533153 0.94112754 -0.08259997
0000b0 ba e2 12 40 a3 a5 12 3f 9a 7c 83 3e 2a 08 d0 bf
       2.2950883 0.5728399 0.25681 -1.6252491
0000c0 50 9f 30 bf f6 77 a1 bf 9b e4 b6 3e b7 2f 8f 3e
       -0.6899309 -1.2614734 0.35721287 0.2796609
0000d0 24 da 8f 3e 14 6a c6 be 2b 0b 0f 3f 34 2b e5 bd
       0.28096116 -0.38752806 0.55876416 -0.11189881
0000e0 76 45 1c 3f 92 db 34 40 e5 71 b5 be 1c 4f d4 be
       0.6104349 2.8259015 -0.35438457 -0.41466606
0000f0 e7 27 cc 3f ac f8 6a 3e 6b dc a2 be 91 45 c4 bf
       1.5949677 0.22946423 -0.3180879 -1.533373

disenlayers.0.bias_list.0 f4 [1, 8]
000000 6c 7b 2f bf 8e ed 24 3f b2 a6 3b bd a0 18 16 bf
       -0.685477 0.6442498 -0.04581327 -0.58631325
000010 55 c7 cd bf d2 7b 9b bf 55 7c 71 3e b1 fc d3 bf
       -1.6076456 -1.2147162 0.23582585 -1.656149

disenlayers.0.bias_list.1 f4 [1, 8]
000000 c8 c6 59 3e aa c8 e7 bf 8a 43 67 3f e2 b8 4a bf
       0.21267235 -1.8108113 0.9033743 -0.7918836
000010 2d 8e 78 3f e6 32 e3 3e aa 6b a8 3d 03 f2 fa 3f
       0.97091943 0.4437477 0.0822366 1.9605106

weight f4 [1, 16]
000000 90 b7 0c bf 85 d4 02 3f a8 72 2e 3e 1a b4 98 be
       -0.54967594 0.5110553 0.17035925 -0.29824907
000010 1f 36 34 be d6 4d 1a bf fa 75 f0 3d ec 1b 0a bf
       -0.1759877 -0.6027502 0.11741252 -0.53948855
000020 7f c7 03 bf 36 28 47 3e 1d bd 00 3f 70 42 ae 3e
       -0.5147628 0.19448933 0.50288564 0.34035063
000030 e5 b4 0c 3d 70 a9 7c be 60 8d 94 3c 16 96 0b bf
       0.034352202 -0.2467401 0.01813382 -0.5452589

weight f4 [2, 8]
000000 1c ca 97 3e 37 9d ed be 98 a6 c9 3e 6a b4 53 3e
       0.29646385 -0.46409008 0.39384913 0.20674291
000010 ec 69 8b be 36 0b 15 3f 3b e5 ae be de 1a ae 3e
       -0.2722925 0.5822023 -0.34159264 0.34004873
000020 f7 b8 8d be cd 26 11 3f 7b 7e 82 3c 1c 23 5d bf
       -0.2768018 0.5669983 0.015929451 -0.863817
000030 58 84 45 3f cc da ae be 71 ed 33 be d5 2e 98 3e
       0.77155066 -0.34151304 -0.17571045 0.2972323

bias f4 [2]
000000 51 93 d8 3d 4f 93 d8 bd
       0.105749734 -0.10574972
