Weights/model_weight.pt_nba.pth (torch, 14221 bytes, 15 tensors)

assigner.layers.0.weight f4 [2, 192]
0.21642308 -0.21801794 -0.2327902 0.095607765 0.057612598 0.14937986 0.008661056 -0.056412317
0.112253204 -0.011314566 -0.17410113 0.06679338 0.03651819 -0.120966434 -0.23335612 -0.05897542
0.039420146 0.06787229 -0.037692446 0.10263155 -0.09974114 -0.117319874 -0.19007085 0.05932148
0.020802869 -0.23020037 -0.14119242 0.20023179 0.10768606 0.12429527 -0.3745964 0.30107072
-0.106973626 -0.031715654 -0.01288644 0.16344741 0.057694223 -0.07878426 0.1263387 -0.09403914
-0.005176947 -0.0036204816 0.083833784 0.11191534 -0.039573886 0.13027182 -0.049366526 0.13814749
0.12133595 -0.07311702 0.20958905 -0.10312818 0.123612575 -0.10953976 0.018637968 -0.0298413
0.040088166 0.07152348 -0.011942719 0.01974491 0.10781199 0.07183713 -0.12072457 -0.12435488
0.0055104205 -0.008645119 0.015810816 0.14643595 0.14329463 0.17968324 0.14664719 0.10310712
0.10545816 -0.10430346 -0.035554133 0.16481258 -0.14667593 -0.055513144 0.13056771 -0.04936838
0.106469646 -0.14110206 0.07734984 0.13072452 -0.045020264 -0.08227296 -0.030872436 0.010633221
0.18806472 -0.009361991 -0.024094103 -0.08118185 -0.003580383 -0.051138546 0.08099946 0.07121184
0.15282096 -0.05940299 0.092030175 -0.09264586 0.08553594 -0.091712594 0.022028899 0.009383135
0.07855516 0.1330932 0.27286297 0.13828717 0.17969006 0.208125 -0.052407216 0.042842757
0.09508944 0.055096608 0.07665937 0.050828982 0.0061756875 0.07506496 0.009320041 -0.03259456
0.073629454 0.16226237 -0.25113958 0.15610266 0.110976525 0.10688824 -0.19912453 0.05934245
0.26571158 0.098437615 0.13056469 0.22104406 0.1274185 0.19412477 0.10972601 -0.04372896
0.112507336 -0.025229882 0.15073137 0.08915843 -0.11880025 0.13178559 0.034259863 -0.13793741
-0.060630422 0.06971755 -0.16244482 0.26717842 0.074238926 0.07324035 0.19376116 0.03240254
-0.0762612 -0.27223894 -0.033665065 0.01573067 0.2417292 0.038722146 -0.15162486 0.05997683
0.022000572 -0.1275792 0.03638392 -0.0020714102 0.072923206 0.22225335 0.017682638 -0.010706468
0.11320244 -0.14861527 -0.05074557 0.07308866 0.13076054 -0.060724672 0.049215924 -0.04102458
0.10235724 0.08701163 -0.16056594 0.041353732 0.22853792 -0.0009144477 0.08091419 -0.17354408
0.18371975 0.1650183 0.006599379 -0.15390244 0.14630547 0.08260575 0.100200556 0.059378427
0.014887507 -0.049911853 -0.24018462 0.07440316 -0.083547264 -0.11045444 0.14379656 -0.1629036
-0.15032399 0.033302963 -0.12678765 -0.17356819 -0.18224786 -0.15053193 -0.19537947 0.013831295
0.006491162 -0.12815773 -0.12184305 -0.02317644 0.09279431 -0.111617774 0.06307289 -0.09614393
-0.045908023 -0.0040881443 0.11954476 -0.068201356 -0.14418073 0.094480745 -0.32292107 0.37069282
0.060094617 0.14348225 -0.04026616 0.232154 0.23230486 0.19318311 0.12139304 0.14367576
0.102138534 -0.030971741 0.14667515 -0.12804452 -0.015493152 0.01148041 0.14349332 0.1461941
-0.07574532 -0.057684746 0.092453875 -0.10071228 -0.118119866 0.10167116 -0.13599613 -0.110343285
-0.123313814 -0.15379594 0.017021354 0.13925791 0.18642789 -0.059872232 0.09224057 -0.06449776
00000000: 039e 5d3e 1840 5fbe 8e60 6ebe 01ce c33d
00000010: 30fb 6b3d 09f7 183e 1ae7 0d3c 9a10 67bd
00000020: 02e5 e53d bb60 39bc 9147 32be f8ca 883d
00000030: 1994 153d 40bd f7bd e8f4 6ebe 3690 71bd
00000040: 0577 213d a100 8b3d 6563 1abd 7d30 d23d
00000050: 1545 ccbd 6745 f0bd efa1 42be 15fb 723d
00000060: c76a aa3c a5b9 6bbe bf94 10be 9009 4d3e
00000070: 828a dc3d 858e fe3d 19cb bfbe f125 9a3e
00000080: fd14 dbbd 46e8 01bd a621 53bc c25e 273e
00000090: c750 6c3d a459 a1bd ef5e 013e 9897 c0bd
000000a0: 61a3 a9bb 9a45 6dbb 0cb1 ab3d df33 e53d
000000b0: 3a18 22bd fa65 053e 8e34 4abd 8976 0d3e
000000c0: fc7e f83d 60be 95bd 839e 563e de34 d3bd
000000d0: 9728 fd3d 6256 e0bd a7ae 983c be75 f4bc
000000e0: 7d33 243d e77a 923d 65ab 43bc 14c0 a13c
000000f0: 88cc dc3d 581f 933d 713e f7bd c5ad febd
00000100: c290 b43b 42a4 0dbc af85 813c 4ef3 153e
00000110: d4bb 123e e2fe 373e ae2a 163e d329 d33d
00000120: 73fa d73d 0d9d d5bd 36a1 11bd a1c4 283e
00000130: 3732 16be c061 63bd 8bb3 053e 8036 4abd
00000140: c20c da3d 0f7d 10be 9869 9e3d a6dc 053e
00000150: 2b67 38bd ba7e a8bd 31e8 fcbc f636 2e3c
00000160: 0a94 403e 0963 19bc ff60 c5bc ab42 a6bd
00000170: dca4 6abb a776 51bd 0be3 a53d 83d7 913d
00000180: 197d 1c3e 8d50 73bd 517a bc3d 1dbd bdbd
00000190: 782d af3d d0d3 bbbd f375 b43c b8bb 193c
000001a0: 87e1 a03d 9549 083e b2b4 8b3e 279b 0d3e
000001b0: ac00 383e b81e 553e f3a8 56bd e37b 2f3d
000001c0: 41be c23d fbac 613d 96ff 9c3d 0d32 503d
000001d0: 6c5d ca3b a8bb 993d 16b3 183c e081 05bd
000001e0: 0acb 963d 1b28 263e 5e95 80be 60d9 1f3e
000001f0: a947 e33d 39e8 da3d 4de7 4bbe 1211 733d
00000200: 590b 883e a999 c93d c0b2 053e 6059 623e
00000210: ff79 023e a5c8 463e 08b8 e03d 231d 33bd
00000220: 3f6a e63d e6ae cebc 5359 1a3e b298 b63d
00000230: 8c4d f3bd cdf2 063e 1254 0c3d 773f 0dbe
00000240: 9b57 78bd 13c8 8e3d ef57 26be 9ccb 883e
00000250: 940a 983d 09ff 953d 5369 463e 87b8 043d
00000260: d52e 9cbd e762 8bbe 61e4 09bd 9bdd 803c
00000270: dc87 773e 1d9b 1e3d 8c43 1bbe 44aa 753d
00000280: 8b3a b43c 1fa4 02be 4e07 153d 7fc0 07bb
00000290: c358 953d 6296 633e 2edb 903c 2e6a 2fbc
000002a0: aed6 e73d 9a2e 18be 96da 4fbd 82af 953d
000002b0: 17e6 053e 6fba 78bd a396 493d 6409 28bd
000002c0: aca0 d13d 2733 b23d 666b 24be 8862 293d
000002d0: d805 6a3e 8cb7 6fba 57b6 a53d 8ab5 31be
000002e0: 0821 3c3e 8ffa 283e 9a3f d83b 9a98 1dbe
000002f0: 1ad1 153e 342d a93d f335 cd3d cb36 733d
00000300: bbea 733c 5f70 4cbd f5f2 75be af60 983d
00000310: d41a abbd f035 e2bd 683f 133e 34d0 26be
00000320: 88ee 19be b068 083d 9fd4 01be dcbb 31be
00000330: 2f9f 3abe 0b25 1abe 8e11 48be a89c 623c
00000340: d0b3 d43b c83b 03be d988 f9bd 84dc bdbc
00000350: f10a be3d dc97 e4bd 5c2c 813d 1ce7 c4bd
00000360: 0d0a 3cbd d7f5 85bb e2d3 f43d 27ad 8bbd
00000370: 1da4 13be 1f7f c13d e955 a5be 73cb bd3e
00000380: c625 763d 03ed 123e 21ee 24bd c7b9 6d3e
00000390: 53e1 6d3e cbd1 453e ea9c f83d bd1f 133e
000003a0: 022e d13d 73b8 fdbc 0332 163e 1a1e 03be
000003b0: fdd6 7dbc 5418 3c3c eaef 123e e8b3 153e
000003c0: 5d20 9bbd d746 6cbd 7558 bd3d 3d42 cebd
000003d0: d4e8 f1bd f838 d03d 9242 0bbe a9fb e1bd
000003e0: f48b fcbd af7c 1dbe 5e70 8b3c a099 0e3e
000003f0: f4e6 3e3e 963c 75bd a0e8 bc3d 6717 84bd

assigner.layers.0.bias f4 [2]
-0.025594354 -0.025421381
00000000: 40ab d1bc 8040 d0bc

assigner.layers.1.weight f4 [2, 2]
-0.10147388 0.10424282 -1.0301937 -0.47893733
00000000: 8ad1 cfbd 427d d53d 63dd 83bf 4637 f5be

assigner.layers.1.bias f4 [2]
-0.025888681 0.025888685
00000000: 8014 d4bc 8214 d43c

disenlayers.0.lin_layers.0.weight f4 [8, 96]
0.12204286 0.052185427 0.016720125 0.29408544 0.073756896 -0.06786495 0.014861202 -0.011689314
0.13420905 -0.093894124 -0.20227076 -0.27204797 0.042604025 0.011523484 -0.28343135 -0.17547736
-0.047411352 0.24792105 -0.063593164 0.21961668 0.30279738 0.266285 -0.13632321 -0.109697275
0.009780254 0.0086826645 0.20180719 0.028015427 0.18018259 -0.0048678545 0.016642926 -0.32635695
-0.16205634 -0.27149084 -0.017519502 0.11276372 0.008802217 0.13889277 -0.018314166 0.02322847
-0.1333623 0.04645457 -0.070525534 0.23669495 0.056422364 0.10822361 0.16325492 -0.020355932
0.093285 0.1435893 -0.16814601 -0.1113101 0.19814727 0.11839012 0.097875535 -0.08518702
0.018207937 -0.043235086 -0.08122194 -0.112353675 -0.064868145 -0.11765583 0.18512021 -0.05363812
-0.13943732 0.18625374 -0.008471062 0.06937574 -0.11363626 -0.031292673 -0.0338505 0.17339884
-0.105948396 0.13819475 -0.13247558 0.07012827 0.093869366 0.20173447 0.07923591 -0.027762441
0.14605978 0.18297821 0.0064696246 -0.035552263 0.29447 -0.0049179173 0.10590353 0.014789209
0.22484966 0.17309517 0.29845968 -0.081493 0.08372253 0.10384016 0.091913044 0.018786713
-0.015768467 -0.19324397 -0.05807701 -0.014124183 0.0047813337 -0.0022314237 -0.17052501 0.109539345
-0.16685933 0.0032797477 -0.25434455 0.17526306 -0.29207942 0.039404858 0.14322568 -0.056758404
-0.17597015 -0.08483879 -0.15899234 -0.1275444 -0.04394144 0.08500662 0.060539708 -0.2702544
0.11146724 0.08744084 -0.11163986 -0.124615684 0.17705661 -0.16988157 -0.14374469 0.04315066
-0.085060626 0.26473993 0.014452397 0.13654095 -0.14039946 -0.081046484 0.01014273 -0.17157753
-0.030230742 -0.12366573 -0.25528777 0.03555619 -0.06471311 0.17932145 -0.034591343 -0.20104721
-0.048026703 0.13941856 -0.08247344 -0.11808515 0.09263088 -0.10737931 -0.13750246 0.13060321
0.14680275 0.04067094 -0.10390282 -0.014599182 -0.20428683 0.16266544 0.07728185 -0.083263494
-0.018967673 -0.1293677 -0.24262764 -0.25016263 -0.26264003 0.20787379 0.04926687 0.15895535
-0.15778728 -0.25618097 0.10512278 -0.23567648 0.0050388146 0.01671123 -0.0061188787 -0.26466882
-0.23163554 -0.12053609 0.089126706 -0.109721124 0.032271437 0.15587536 0.20407659 0.018784307
-0.13174395 -0.11020659 0.1195141 -0.21479851 0.034622673 -0.023269728 -0.23068094 0.08903325
0.14406836 0.038201656 0.13796237 -0.013645181 -0.038898874 -0.1532452 -0.1849786 -0.117745794
0.13824292 0.074419476 0.12257747 -0.21072847 0.027749904 0.13827743 -0.08941562 -0.122173406
0.21714059 0.177852 0.12266578 -0.0672862 -0.20147394 -0.058252588 0.0010714747 0.19313122
0.22109395 -0.19625366 -0.18897189 0.21113704 0.07133287 0.11340733 0.24940655 0.103691235
-0.13402008 -0.15780313 -0.0064609125 0.0045061205 -0.15490071 0.049176328 0.18234207 0.09697348
0.07428437 -0.020814484 0.18878499 0.0909426 -0.17529869 -0.13950759 0.07670927 -0.039501946
0.0027657943 -0.010980539 0.21876237 -0.19133656 -0.23844257 0.14018404 0.13106133 -0.16459979
0.22509478 -0.2334223 -0.111378185 0.049196936 -0.14940897 0.10881186 -0.05380522 0.012218299
00000000: 9bf1 f93d 63c0 553d a5f8 883c 5e92 963e
00000010: db0d 973d c7fc 8abd 667c 733c 8984 3fbc
00000020: 196e 093e 904b c0bd 1120 4fbe df49 8bbe
00000030: 8f81 2e3d ffcc 3c3c ea1d 91be 56b0 33be
00000040: 6832 42bd 04df 7d3e 223d 82bd 32e3 603e
00000050: 4208 9b3e 8256 883e 5098 0bbe f7a8 e0bd
00000060: 5c3d 203c bc41 0e3c 8ba6 4e3e 9c80 e53c
00000070: c981 383e 8682 9fbb bf56 883c 4218 a7be
00000080: 19f2 25be d900 8bbe 0f85 8fbc aaf0 e63d
00000090: 2d37 103c e839 0e3e 9707 96bc a249 be3c
000000a0: 2090 08be 2647 3e3d b16f 90bd 2960 723e
000000b0: 231b 673d 57a4 dd3d 4c2c 273e 7cc1 a6bc
000000c0: 350c bf3d 1309 133e 782e 2cbe 8df6 e3bd
000000d0: 1ee7 4a3e 8576 f23d f872 c83d 8876 aebd
000000e0: d028 953c 4617 31bd b057 a6bd af19 e6bd
000000f0: 97d9 84bd 8af5 f0bd 2790 3d3e a5b3 5bbd
00000100: a8c8 0ebe 4db9 3e3e 36ca 0abc de14 8e3d
00000110: 21ba e8bd bf2c 00bd d2a6 0abd 778f 313e
00000120: 79fb d8bd ed82 0d3e aea7 07be 699f 8f3d
00000130: 953e c03d 7b93 4e3e 7046 a23d 0f6e e3bc
00000140: b290 153e a45e 3b3e 25ff d33b 409f 11bd
00000150: c6c4 963e 7b26 a1bb f3e3 d83d 704e 723c
00000160: fd3e 663e dc3f 313e b5cf 983e cde5 a6bd
00000170: b876 ab3d 26aa d43d e83c bc3d 98e6 993c
00000180: df2c 81bc bfe1 45be 29e2 6dbd 1e69 67bc
00000190: bcac 9c3b 143d 12bb 1c9e 2ebe 2a56 e03d
000001a0: 2cdd 2abe 09f1 563b 7339 82be 2978 333e
000001b0: 6f8b 95be fd66 213d c1a9 123e 807b 68bd
000001c0: 8531 34be f6bf adbd e3ce 22be 009b 02be
000001d0: f0fb 33bd f317 ae3d 7cf8 773d c95e 8abe
000001e0: f048 e43d 2f14 b33d 70a3 e4bd 8236 ffbd
000001f0: 544e 353e 6ff5 2dbe cf31 13be bfbe 303d
00000200: 4434 aebd fe8b 873e bfc9 6c3c 64d1 0b3e
00000210: e0c4 0fbe b3fb a5bd b12d 263c 05b2 2fbe
00000220: 76a6 f7bc 7544 fdbd 14b5 82be 5ea3 113d
00000230: 4f88 84bd 0ba0 373e a7af 0dbd 52df 4dbe
00000240: a6b7 44bd bdc3 0e3e d6e7 a8bd a1d6 f1bd
00000250: 42b5 bd3d afe9 dbbd 72cd 0cbe d9bc 053e
00000260: 7653 163e 9296 263d 00cb d4bd 6831 6fbc
00000270: 9130 51be c591 263e f245 9e3d 0d86 aabd
00000280: 1862 9bbc f778 04be 6173 78be 5115 80be
00000290: c178 86be dedc 543e 0fcc 493d 31c5 223e
000002a0: fd92 21be 272a 83be 9d4a d73d 2d55 71be
000002b0: a41c a53b fde5 883c e080 c8bb ac82 87be
000002c0: de31 6dbe a0db f6bd 1088 b63d 78b5 e0bd
000002d0: 0e2f 043d ca9d 1f3e 74f9 503e 8ce1 993c
000002e0: e3e7 06be feb3 e1bd cfc3 f43d 24f4 5bbe
000002f0: 81d0 0d3d 28a0 bebc a037 6cbe 1157 b63d
00000300: a886 133e 5779 1c3d 0246 0d3e 0a90 5fbc
00000310: 6d54 1fbd 4fec 1cbe 086b 3dbe b524 f1bd
00000320: 8d8f 0d3e 3d69 983d e609 fb3d 34c9 57be
00000330: c453 e33c 9998 0d3e 891f b7bd 0d36 fabd
00000340: 1a5a 5e3e d61e 363e 3238 fb3d 59cd 89bd
00000350: 2f4f 4ebe 449a 6ebd ba70 8c3a 31c4 453e
00000360: 7466 623e b8f6 48be d981 41be 4f34 583e
00000370: f816 923d 1a42 e83d 6e64 7f3e 125c d43d
00000380: 8f3c 09be 2597 21be 10b6 d3bb 14a8 933b
00000390: 4b9e 1ebe 1e6d 493d e1b7 3a3e 089a c63d
000003a0: 6722 983d 2383 aabc da50 413e 1d40 ba3d
000003b0: 8081 33be 14db 0ebe c019 9d3d cbcc 21bd
000003c0: 5442 353b b8e7 33bc 3e03 603e bbed 43be
000003d0: 4a2a 74be 688c 0f3e f134 063e d98c 28be
000003e0: 3f7f 663e 4106 6fbe 3f1a e4bd ba82 493d
000003f0: aafe 18be c1d8 de3d dd62 5cbd 432f 483c

disenlayers.0.lin_layers.0.bias f4 [8]
-0.062526554 0.027168438 0.010343219 0.016424384 0.05050551 0.036081348 0.015895717 -0.017105935
00000000: ec0d 80bd 5890 de3c 9b76 293c 6e8c 863c
00000010: dede 4e3d 09ca 133d bc37 823c bf21 8cbc

disenlayers.0.lin_layers.1.weight f4 [8, 96]
0.11416086 0.0069361627 -0.12774147 -0.002094284 -0.009331116 -0.096286125 0.20692158 -0.12939024
-0.060653046 -0.14550911 -0.13778883 0.051022276 0.10957623 0.03905712 -0.10889893 -0.18288952
0.118351385 -0.14832814 -0.109173395 -0.039255016 -0.16276008 0.010448178 0.15646553 0.13538472
-0.17459388 0.20248558 0.010064131 -0.25964597 0.060181692 0.082091756 0.06961195 0.10818875
0.03212329 0.23328234 0.2362721 0.2793491 0.0337079 0.22289692 0.17110078 -0.11393833
0.0818869 0.012570983 -0.15096034 0.2070862 -0.14740005 0.19424303 -0.0665325 0.22644056
-0.108187 0.19717582 -0.22173344 0.03885661 -0.1077077 0.081680395 -0.2588949 -0.05237253
-0.050721638 -0.17281361 0.2159029 0.09115487 -0.037634913 -0.009268331 -0.241568 0.16286895
-0.14523923 -0.08848829 -0.2404112 0.23410462 0.08418125 0.1349761 0.16504815 0.055362638
-0.22571726 -0.21112412 -0.12789333 0.0077733714 -0.18713368 0.14715828 0.104226865 0.09631694
-0.06065527 0.14303592 -0.26479605 -0.19567631 0.25669459 -0.13471237 -0.01332225 0.19906905
0.03329673 0.147642 0.22771479 -0.037271142 0.22201751 0.011686266 -0.023808097 0.12739253
0.038673315 0.06505698 0.16536321 -0.13132147 -0.15744568 0.11639355 -0.06443326 -0.18015097
0.0069234753 -0.068422 -0.03846921 -0.114702985 -0.14355682 0.053715575 0.04582752 0.17657115
0.10542884 -0.14686592 -0.026799474 0.3205545 -0.25331742 -0.05113045 -0.08128395 -0.15064774
-0.0024761662 0.16986564 -0.23389833 -0.26915094 0.10741795 -0.12190737 -0.27679557 0.04507669
0.3644946 -0.1930174 -0.03179585 -0.035428893 0.018899348 0.21189004 -0.11162134 -0.26774117
-0.12361642 -0.02215239 -0.22995064 0.06469088 -0.12546043 0.0094246175 0.17848645 0.15383452
-0.18757007 0.16473643 0.12086317 -0.20164524 -0.09363053 -0.07906916 -0.0931529 -0.07436734
0.14614204 -0.04667362 -0.10077034 0.15884262 0.12798807 0.13708408 0.037083074 0.11143813
0.1206436 0.18156022 0.16646105 -0.18488851 -0.13903667 -0.14371042 0.16099975 -0.15819602
0.18486172 -0.10727621 -0.29901353 0.24133728 0.2298761 0.06802245 0.10190665 0.13958299
0.13029735 -0.041518323 -0.07669338 -0.17987351 0.14429669 0.15157622 -0.15116753 -0.19313613
-0.24608423 0.12172002 0.071745396 -0.023705257 0.039072078 0.24450022 -0.042341582 -0.16186091
-0.35254252 0.11949362 -0.070247136 0.1870445 -0.06840506 -0.23130396 0.084126465 0.11103278
0.2202129 0.030156879 -0.09358835 -0.22439674 -0.013180418 0.18436462 0.15595707 0.22461301
0.0054032565 -0.18734074 -0.048331045 0.14247318 -0.045917787 0.12266295 0.048445504 0.20070438
-0.15059085 -0.075243935 0.18363523 0.039802972 0.11021904 0.017229192 0.16430621 -0.036490098
-0.1030457 0.054442443 -0.08116543 -0.20936225 0.09200443 -0.23044927 0.071631275 0.026341159
-0.1457387 0.09913791 -0.07300992 -0.0037902924 -0.057375487 -0.10047332 -0.06011174 0.049135003
-0.18817605 -0.20377699 -0.02160176 -0.20600069 -0.1576001 0.22386122 0.12365858 -0.08650266
-0.17517234 0.24818017 -0.043739207 -0.166183 -0.20893192 0.14996623 -0.18784519 -0.13225919
00000000: 2bcd e93d c048 e33b a9ce 02be 4140 09bb
00000010: 8ae1 18bc a931 c5bd 40e3 533e e07e 04be
00000020: 546f 78bd 5700 15be 8418 0dbe bcfc 503d
00000030: 8169 e03d 5cfa 1f3d 6706 dfbd 6447 3bbe
00000040: 3662 f23d 55e3 17be 4d96 dfbd dec9 20bd
00000050: 94aa 26be d62e 2b3c 8038 203e 4ba2 0a3e
00000060: bdc8 32be 6158 4f3e 06e4 243c 51f0 84be
00000070: 1481 763d b91f a83d b690 8e3d 1092 dd3d
00000080: b693 033d 91e1 6e3e 50f1 713e d806 8f3e
00000090: 4c11 0a3d 173f 643e 0b35 2f3e 8058 e9bd
000000a0: 52b4 a73d 86f6 4d3c 5995 1abe 680e 543e
000000b0: 0af0 16be a5e7 463e 3142 88bd 09e0 673e
000000c0: 2591 ddbd 75e8 493e 170e 63be 1c28 1f3d
000000d0: db95 dcbd 0d48 a73d df8d 84be 9484 56bd
000000e0: 7ec1 4fbd 0df6 30be a615 5d3e 68af ba3d
000000f0: 1127 1abd 33da 17bc 9a5d 77be 1ec7 263e
00000100: 98b9 14be 5939 b5bd 5b2e 76be 1fb9 6f3e
00000110: 3867 ac3d 2d37 0a3e 6202 293e efc3 623d
00000120: 6d22 67be ec30 58be 78f6 02be c4b7 fe3b
00000130: f99f 3fbe a9b0 163e e574 d53d d141 c53d
00000140: a971 78bd 0278 123e 5993 87be 5f5f 48be
00000150: 796d 833e 0af2 09be 9145 5abc c2d8 4b3e
00000160: 2762 083d 772f 173e 112e 693e a0a9 18bd
00000170: 8f58 633e c177 3f3c 3309 c3bc 3073 023e
00000180: e967 1e3d 983c 853d f954 293e 2379 06be
00000190: 7139 21be be5f ee3d 96f5 83bd 7f79 38be
000001a0: 52de e23b d520 8cbd e491 1dbd 66e9 eabd
000001b0: 8f00 13be dd04 5c3d a3b5 3b3d 11cf 343e
000001c0: 13eb d73d 0564 16be 928a dbbc b81f a43e
000001d0: d2b2 81be 2a6e 51bd 3378 a6bd 6743 1abe
000001e0: 2d47 22bb 42f1 2d3e 0b83 6fbe 27ce 89be
000001f0: f1fd db3d 92aa f9bd 26b8 8dbe 56a2 383d
00000200: 099f ba3e 5aa6 45be 5d3c 02bd e31d 11bd
00000210: ced2 9a3c b4f9 583e bb99 e4bd 5f15 89be
00000220: 9b2a fdbd ee78 b5bc 2e78 6bbe a77c 843d
00000230: b378 00be b669 1a3c 27c5 363e cc86 1d3e
00000240: 5e12 40be abb0 283e 1c87 f73d 177c 4ebe
00000250: 5dc1 bfbd 03ef a1bd f3c6 bebd e74d 98bd
00000260: 42a6 153e d62c 3fbd ae60 cebd a4a7 223e
00000270: 4e0f 033e c55f 0c3e 6ce4 173d ad39 e43d
00000280: fe13 f73d ecea 393e c474 2a3e 6a53 3dbe
00000290: a15f 0ebe d328 13be 1edd 243e 23fe 21be
000002a0: 644c 3d3e a1b3 dbbd 4d18 99be 1f21 773e
000002b0: a464 6b3e 5b4f 8b3d 6fb4 d03d d8ee 0e3e
000002c0: ab6c 053e 1e0f 2abd 6b11 9dbd c330 38be
000002d0: 83c2 133e cc36 1b3e a9cb 1abe 7ac5 45be
000002e0: 81fd 7bbe 5948 f93d 40ef 923d 8731 c2bc
000002f0: 0b0a 203d 445e 7a3e 5e6e 2dbd debe 25be
00000300: 7480 b4be 12b9 f43d bbdd 8fbd 9888 3f3e
00000310: f417 8cbd f2da 6cbe 7f4a ac3d 2765 e33d
00000320: 7e7f 613e 8f0b f73c 40ab bfbd 42c8 65be
00000330: aef2 57bc 14ca 3c3e 36b3 1f3e f400 663e
00000340: cd0d b13b 40d6 3fbe c6f6 45bd 7de4 113e
00000350: 4a14 3cbd b636 fb3d cb6e 463d 7385 4d3e
00000360: 7d34 1abe 7e19 9abd e00a 3c3e 7108 233d
00000370: 85ba e13d 3c24 8d3c e33f 283e a476 15bd
00000380: a009 d3bd 0aff 5e3d 103a a6bd 0f63 56be
00000390: d26c bc3d e5fa 6bbe 6bb3 923d 6ac9 d73c
000003a0: 873c 15be d108 cb3d 3a86 95bd 8e66 78bb
000003b0: 8f02 6bbd f5c4 cdbd ba37 76bd c941 493d
000003c0: 39b1 40be eaaa 50be 2df6 b0bc d8f1 52be
000003d0: ec61 21be e03b 653e b640 fd3d 4e28 b1bd
000003e0: 6160 33be f122 7e3e e227 33bd e02b 2abe
000003f0: 40f2 55be bf90 193e 7d5a 40be f46e 07be

disenlayers.0.lin_layers.1.bias f4 [8]
-0.0023705533 0.0028533225 0.006354694 -0.004705167 0.006981467 -0.011366279 -0.037102688 -0.00962881
00000000: 495b 1bbb cffe 3a3b 093b d03b cd2d 9abb
00000010: cac4 e43b a139 3abc fdf8 17bd 28c2 1dbc

disenlayers.0.conv_layers.0.weight f4 [8, 8]
-0.19172029 -0.20333481 -0.8781081 0.8846281 1.9770871 -1.0081676 -0.69797105 -0.45556894
0.71057177 -0.79899156 1.4676185 0.5189285 0.7423502 0.9409924 -0.7374188 -0.6584793
0.8004459 0.16545825 -1.955893 0.17867588 1.7098632 -0.78618455 0.123949535 -1.7209959
-1.0563409 -0.3082415 0.6200818 0.92261523 1.1759391 0.034263868 1.025093 1.2271674
-1.7843643 -0.35430735 -0.2599313 -2.086589 1.7195117 -1.8049548 -1.3281094 0.42283764
-0.64490813 -1.2438654 -0.07783077 -0.6105529 0.83447075 1.4107538 0.80705684 -0.1341305
-2.0046275 1.3207134 2.3896735 0.10238508 0.4995022 -0.96160877 -0.88867867 1.437341
-1.1374712 -0.27666476 0.11419831 0.56371886 -0.20966062 0.96424955 -1.5071458 -0.9697821
00000000: 5352 44be 0037 50be b1cb 60bf fd76 623f
00000010: 3111 fd3f a30b 81bf 3bae 32bf 5540 e9be
00000020: 08e8 353f b68a 4cbf ecda bb3f 80d8 043f
00000030: aa0a 3e3f e1e4 703f 7ac7 3cbf 1992 28bf
00000040: 06ea 4c3f e36d 293e b45a fabf cff6 363e
00000050: ccdc da3f 6443 49bf 41d9 fd3d 9849 dcbf
00000060: 2e36 87bf d4d1 9dbe aebd 1e3f 8330 6c3f
00000070: 2c85 963f 4558 0c3d 3f36 833f d213 9d3f
00000080: 0d66 e4bf c667 b5be b715 85be ad8a 05c0
00000090: f618 dc3f c208 e7bf 7dff a9bf 2d7e d83e
000000a0: b318 25bf fb36 9fbf bd65 9fbd 324d 1cbf
000000b0: e09f 553f 9593 b43f 479b 4e3f 8159 09be
000000c0: d14b 00c0 230d a93f 69f0 1840 45af d13d
000000d0: c1be ff3e fe2b 76bf 7280 63bf cafa b73f
000000e0: a898 91bf 01a7 8dbe cee0 e93d e14f 103f
000000f0: 46b1 56be 0fd9 763f 27ea c0bf a443 78bf

disenlayers.0.conv_layers.1.weight f4 [8, 8]
-1.399473 -1.8932381 0.40629268 1.2990175 0.75206846 -0.3302516 -0.6495772 -0.71853083
0.5449258 2.0057957 -0.46685782 -1.8503363 -0.86796755 -0.1724723 -0.34841982 -1.0189342
-0.47469178 1.3914886 -0.8357744 -1.9393665 -1.1323774 -0.37516502 0.40516728 -1.6130494
-0.47305894 0.9047034 0.26249006 -0.030618101 0.2856666 -0.44249964 0.9171701 -1.4210932
0.08167331 -1.6696411 -1.2848227 1.8691726 1.9206318 0.73577327 0.47383583 0.09691705
-0.44578686 0.052445047 -0.36877587 -1.4914525 0.73031616 -0.55117565 -1.5694927 1.5358409
-0.6068806 0.66723186 -1.6085272 0.06424964 -1.2452694 -1.9323628 1.2752613 -0.61973023
-0.16657344 -0.6230045 -0.03650515 -0.60958606 -0.6669436 -1.3707142 0.37510836 0.21740802
00000000: ee21 b3bf a055 f2bf 9805 d03e 3546 a63f
00000010: 8f87 403f bd16 a9be b14a 26bf a3f1 37bf
00000020: 4280 0b3f f55e 0040 fd07 efbe d2d7 ecbf
00000030: 1f33 5ebf 949c 30be 1564 b2be 706c 82bf
00000040: cd0a f3be 4c1c b23f 50f5 55bf 293d f8bf
00000050: bef1 90bf a115 c0be 1672 cf3e 6778 cebf
00000060: c834 f2be a49a 673f 1965 863e d0d2 fabc
00000070: e542 923e 508f e2be a9cb 6a3f 62e6 b5bf
00000080: 5644 a73d cdb6 d5bf 1275 a4bf 0c41 ef3f
00000090: 43d7 f53f a35b 3c3f 9c9a f23e 727c c63d
000000a0: 2d3e e4be 9ed0 563d 31d0 bcbe eae7 bebf
000000b0: 00f6 3a3f d919 0dbf 23e5 c8bf 6f96 c43f
000000c0: 875c 1bbf b5cf 2a3f 38e4 cdbf 5195 833d
000000d0: fd64 9fbf aa57 f7bf c33b a33f a4a6 1ebf
000000e0: 3a92 2abe 397d 1fbf 6d86 15bd d50d 1cbf
000000f0: d1bc 2abf 9073 afbf 340e c03e 35a0 5e3e

disenlayers.0.bias_list.0 f4 [1, 8]
-0.92053306 0.34921905 -1.0045965 -1.5122284 -0.31266305 -0.72615606 -2.1948676 -1.1140623
00000000: 0ea8 6bbf d7cc b23e 9e96 80bf b390 c1bf
00000010: 5f15 a0be 5de5 39bf b678 0cc0 9899 8ebf

disenlayers.0.bias_list.1 f4 [1, 8]
-0.5711616 -0.50069785 0.8061093 2.7089708 0.33779326 0.77536947 -1.0882399 -1.589874
00000000: a637 12bf bc2d 00bf 2e5d 4e3f c75f 2d40
00000010: 3df3 ac3e 9d7e 463f 724b 8bbf fe80 cbbf

weight f4 [1, 16]
0.45816144 -0.601072 0.6270917 0.7007032 -0.26980355 0.026854882 0.66948736 0.8274695
-0.47671735 0.70874584 0.06523753 -0.14332877 -0.23695906 0.06688572 0.44476333 -0.12044322
00000000: 2394 ea3e dbdf 19bf 1589 203f 4961 333f
00000010: b123 8abe c5fe db3c 8663 2b3f 0bd5 533f
00000020: 4c14 f4be 5e70 353f 419b 853d c7c4 12be
00000030: 65a5 72be 61fb 883d 05b8 e33e efaa f6bd

weight f4 [2, 8]
-0.37629586 -0.75082296 -0.7860615 -0.21475601 -0.06815573 0.32323727 -0.3709847 0.21042265
-0.6323667 0.74827355 0.06788318 -0.29896086 -0.57896185 -0.10616253 0.11454845 0.78415835
00000000: daa9 c0be ef35 40bf 543b 49bf 00e9 5bbe
00000010: 3b95 8bbd 5b7f a53e b5f1 bdbe 0979 573e
00000020: c9e2 21bf db8e 3f3f 5606 8b3d 6611 99be
00000030: d836 14bf be6b d9bd 6198 ea3d 9abe 483f

bias f4 [2]
0.13172227 -0.1317223
00000000: 34e2 063e 36e2 06be
